runs/bipedalwalker1.pt (torch, 690756 bytes, 6 tensors)

layer1.weight f4 [400, 24]
00000000: 7819 b1bc 11c8 42be 77f9 72bd b812 df3e
00000010: 18b4 61bd 2c89 9c3e e8ba 1fbe c9e9 463d
00000020: eb90 dfbe 9b51 a73e e587 bd3c d62e 2bbf
00000030: e32f 98bd a807 463c ce70 9dbe b303 34be
00000040: 25bd 81be bb2f a8be a462 00bf 45c5 5dbe
00000050: 9aa9 0abe be71 76be c503 8dbe 27fb 56be
00000060: 41f6 243f cb8e 2b3f 5cd6 9ebf 200e e93d
00000070: 809f fabe f6b7 1bbf edb8 043e 86b5 a7be
00000080: 1dfc 6d3e ec4f 163f 7620 933e d93b 05bf
00000090: 9053 c13e cfd0 cbbe 079d 3a3e 91f2 c53d
000000a0: 5d7d 553d f8e3 34be 8a64 e5bd f14a 64bd
000000b0: c422 293e da1d 903d 8cfc 6e3e da09 0dbd
000000c0: b7f2 2b3e 8d26 113e 3454 a6be 0382 f03d
000000d0: 9ef7 d7bd 6d94 803d 76dd 3e3d aa83 96bd
000000e0: 08ee 24be 9848 3fbe 85b3 293d 50fb c8bc
000000f0: becd 61bc cf3b 21be e47a 8bbe 5859 edbd
00000100: 9ebe 9bbd 235f 6cbe 0133 debd 9063 95be
00000110: 23f9 85be 3b83 e7bd de37 83be 82d7 383c
00000120: 0e23 bdbe 19ba b3bf 8142 573f 9db2 763f
00000130: 18c4 84be d585 a43e 950e cdbe f44b 9e3d
00000140: d2c2 bf3e b521 473d 2485 a7be 8de3 a5be
00000150: be33 39bd 9b86 263d 6193 e6be 9f43 e6be
00000160: 6132 b8be a507 96be 2da1 9fbe 0eec f7bd
00000170: b2a4 a8be a1c8 62be 8723 07be 1604 50be
00000180: 1e0a 4c3f 10b7 9d3f a0bb 22bf 2eff dbbe
00000190: 1c29 623d 99f0 143c ac85 273e 8b0c abbc
000001a0: 6f7d cb3e 494d c33e d35a 36be 9a70 b0be
000001b0: 252b 1c3c cc58 febd 8923 0cbe 86a6 32be
000001c0: f905 bebe 2bce d9bd b2d8 24be 935c 6ebe
000001d0: 2a5d 3abe b557 bebe f332 25be f936 c5bd
000001e0: 1424 d5be 4694 22bf fe65 63bd 2b04 49bf
000001f0: 4988 26be f967 383e ae6e b93e 5441 d8bd
00000200: a01d 6e3d 3894 213d 417a 5e3e 0751 0ebf
00000210: bd37 1e3d 37af c23e 2755 40be 6d7c 123d
00000220: 89f6 31be 7055 093e 634f 1f3e c69a 6abd
00000230: ca3e ac3d 2869 aabc eb38 263d 9b83 a93e
00000240: 86d0 6c3f 1482 b73f c8e8 9ebf a1d1 4cbf
00000250: a743 913e ad68 be3d b7ef 1dbd f1f7 36be
00000260: cca6 763e 43ba 033f 00df d2bd 607a c93d
00000270: 799a 99bd bcc5 1fbd 88b4 dabe e241 95be
00000280: 5c38 79be c356 0bbe f33b adbe 985d a8be
00000290: 9a23 81be fb02 3fbe 691c efbd 2cbb 26be
000002a0: 9e55 bb3c 40e4 dfbf 9611 9f3f 1a53 923f
000002b0: cb19 cc3e 88f1 003e 9232 a73e 6f51 a13e
000002c0: ad6a e9be 95ec 97be 46ba 32bf 1ced 82bc
000002d0: 5655 4f3e d0b8 d53e 82d7 40be 6edb 0abe
000002e0: f732 783c 9cbf c93d cd2a f53c d9af 003e
000002f0: ad7a 8bbc 0fe6 82bd c01e 62bd bd47 ddbd
00000300: 3cfd ca3e 62fd 2f3f dea8 9dbe 6d7f 29bf
00000310: c5ce 8b3d 6385 ab3e 5196 bc3e 06ec bd3e
00000320: e9df 04bf fe2e 003f 798a 103e d22d d9be
00000330: 89f3 debe 8b39 c23e 5c43 66bd eae7 41be
00000340: 57e6 86be 9b60 83be 6e5b d3bd fada ccbe
00000350: cb87 16b8 e472 9bbe 48d1 cebe f4ef 34be
00000360: 7c40 b63d e515 d43d 9796 193d 003c 603e
00000370: 74f5 ee3d 935b 0b3d be07 0f3e f0ea dcbc
00000380: 12a7 be3c 81e1 213d b4ac be3d ca3b 96bd
00000390: f59f ef3d 5104 19bc 4228 5ebe 3670 8bbe
000003a0: 898e 01be cd72 6c3c a0e0 c6bd b792 14be
000003b0: fa93 43be 28a3 51bd 2b95 df3c d671 9f3b
000003c0: 6fe8 273f 1d94 983f 64f0 9bbf 432b 97be
000003d0: 7f16 f5bd df27 643e 189b 1c3e 5aac 8fbd
000003e0: e545 a33e 8d75 e13c 1f42 18be 228c 5cbe
000003f0: 899d 0a3d 1f62 c7bc 70e6 8bbe 20b8 16be
-0.02161859 -0.19021632 -0.05931994 0.4356897 -0.05510339 0.30573404 -0.15598643 0.0485628
-0.4366525 0.32679448 0.023136089 -0.6686834 -0.07431009 0.012086786 -0.30750126 -0.17579536
-0.25339618 -0.32848915 -0.50150514 -0.21657284 -0.1354126 -0.24066827 -0.27541938 -0.20994245
0.64438254 0.6701476 -1.2409167 0.11379647 -0.48949814 -0.6082758 0.12961169 -0.3275568
0.23240705 0.587157 0.28735703 -0.52044445 0.37759066 -0.39807746 0.18223964 0.096654065
0.05212151 -0.17665088 -0.11200817 -0.055735532 0.16517168 0.07036944 0.23338526 -0.034433223
0.16791807 0.14174862 -0.32486117 0.11743548 -0.10545276 0.0627831 0.04659792 -0.07349332
-0.16106427 -0.18680036 0.04143097 -0.024533898 -0.013781963 -0.15745471 -0.27242196 -0.115893066
-0.07604717 -0.23083167 -0.10849572 -0.29177523 -0.2616664 -0.11304327 -0.2562856 0.01128185
-0.36940807 -1.4041167 0.8408585 0.9636629 -0.25930858 0.32133356 -0.40050188 0.07729331
0.37453324 0.04861613 -0.32718766 -0.3240017 -0.04521536 0.040655714 -0.45034316 -0.44973466
-0.35975936 -0.29302707 -0.31177655 -0.12105571 -0.32938153 -0.22146846 -0.13197146 -0.20314059
0.7970294 1.2321491 -0.63567543 -0.42968124 0.055214986 0.009090566 0.16359586 -0.020880004
0.39744136 0.381449 -0.17808084 -0.34460908 0.009531771 -0.124192804 -0.1368543 -0.17446336
-0.37113932 -0.106350265 -0.16098288 -0.23277502 -0.18199602 -0.3717629 -0.16132717 -0.09629626
-0.41629088 -0.635075 -0.05551719 -0.78521985 -0.16262926 0.18008412 0.36217254 -0.10559335
0.05813372 0.039447993 0.21726324 -0.5559239 0.038627375 0.38024303 -0.18782483 0.035763193
-0.17379202 0.13411498 0.15557627 -0.05727651 0.084104136 -0.020802096 0.040581625 0.3310822
0.9250568 1.4336572 -1.2414789 -0.8000737 0.28371927 0.09297309 -0.038558688 -0.1786802
0.24087065 0.5145609 -0.1029644 0.09837794 -0.075001664 -0.039006934 -0.4271586 -0.29151827
-0.24337906 -0.13607316 -0.338348 -0.32883906 -0.25222474 -0.1865348 -0.11675341 -0.16282338
0.022867974 -1.7491531 1.2427242 1.143161 0.39863428 0.12592137 0.3265577 0.3150744
-0.455892 -0.29672685 -0.6981548 -0.015982203 0.20247397 0.41742563 -0.1883221 -0.13560268
0.01514887 0.09851 0.029927636 0.1256708 -0.01702627 -0.063915364 -0.055205107 -0.108046986
0.39646327 0.68746006 -0.30792898 -0.6621006 0.068265475 0.33500203 0.36833432 0.37094134
-0.5190416 0.50071704 0.14115323 -0.4241777 -0.43545178 0.37934527 -0.056216583 -0.18936124
-0.2634761 -0.25659642 -0.10320173 -0.40010816 -3.5889254e-05 -0.30361092 -0.40394044 -0.1766966
0.08899018 0.103557386 0.03749713 0.21897888 0.1166791 0.03402288 0.13967797 -0.026967496
0.023273025 0.039521698 0.09310284 -0.073356226 0.11700431 -0.009339408 -0.21695045 -0.27234048
-0.12652029 0.0144316675 -0.097108126 -0.14509092 -0.19099417 -0.05118099 0.027292809 0.004865865
0.6558904 1.19202 -1.2182736 -0.29525194 -0.119671814 0.22280835 0.15293539 -0.07015295
0.31889263 0.027521873 -0.14868973 -0.21537831 0.033841643 -0.02433878 -0.27324247 -0.14718676

layer1.bias f4 [400]
00000000: 70ea b6be 9de4 52be 7d44 b1be 4f20 95be
00000010: 283e 89be 84df ca3e bd47 2e3e 88f8 1b3b
00000020: 03f6 58bd 5d2e 9cbe cedf 2b3d 6d58 8ebd
00000030: 3a55 663d 2901 04be b017 3ebd 29aa c8bd
00000040: 453f 9dbd eb81 6dbe a98f c9bd 7c78 c8be
00000050: 5a67 a93d 0940 ed3d 238a 29be d762 75be
00000060: 1ba6 87be 9421 783d fbfc 47be a762 5cbe
00000070: 713a f4bd 24d9 c9bb 4896 d1bc 6ef2 0dbe
00000080: a704 27be 948c 32be 9c3b 663e 799a 70be
00000090: 6bac 3d3d 2830 8abe 6cb3 81bd 4c86 b83c
000000a0: 9ab3 49be 65d7 a3be 808a 48be 8f53 55be
000000b0: 2dad 1d3e de06 84be 4573 36be c846 37be
000000c0: 8a58 043e 3729 cebe 6069 1e3e 1faa 91be
000000d0: f7c6 9cbe 0834 d8bd fa3d 57be 5742 913d
000000e0: 9f5c f1be f279 98bd becc 55be c3f3 90be
000000f0: cc38 a7be d888 0abe 0542 8bbe 62a9 83bd
00000100: 6513 a43e 86a5 35be 2f48 24be 07ea babe
00000110: c06c 60be 70ce 9fbe 79bd 31be cd45 b4bd
00000120: 5ea2 253e b25d b6be 1b43 4ebe bf50 f5bc
00000130: adc1 853e 6390 3ebb 10c1 33bd d78f a2bd
00000140: b490 9c3d badf 47bd 88a7 2cbe 0c3d dbbc
00000150: 2754 11be 739d da3d a074 a0be 8ada e33d
00000160: 155f 773e 7742 74be 1c90 dfbd 01cc bfbd
00000170: 8764 eabd 2eb5 f6bb 0dd5 0bbe 9359 243d
00000180: f719 a3be 323e 6ebe b3e7 11be ab0f 4cbe
00000190: df13 82be 9283 4dbd 6089 cebd e1f4 12be
000001a0: 71dd 81be aef6 a0be 6d44 04be 9cba c6be
000001b0: 396d 38be cd1a 023e 4433 6cbe 7f9e 58be
000001c0: c868 c4be 5964 77be 891e 86be 1d0a 90be
000001d0: ecc1 3dbe 48d7 aabd b441 bb3d 6775 233d
000001e0: 25d2 40be 882e 9abd a8c2 92be e642 9bbe
000001f0: f47e 4abe 12a9 0ebe 34e6 51be 2f65 993c
00000200: 66fc d2bd 4d8c 3f3e 36e7 86bc ea90 4cbd
00000210: c419 72bd 1a3e 89bd c4c2 713e 23a6 afbe
00000220: eb00 7a3d d18b 723d 6caa 053e 76ad 54be
00000230: eca6 013d 42af 8abe 90a9 5bbe 9d2e 0ebe
00000240: a30f 7abb 9c18 a2be a99c 06be 7437 a5bd
00000250: 5778 943d 4925 31be b0c0 b8bd 574d 41bd
00000260: 78f7 6b3e 29e4 bebc 1563 e33d dcbb b2be
00000270: 15c4 4dbe 76f3 903d 2e74 76bd 91b4 073e
00000280: 3c68 15be 21b3 ebbe 01ba abbd b245 b1be
00000290: d1a5 bcbb 6e6e a0be 6991 68bd f08f 2dbd
000002a0: 819e 2dbe c34f 5cbe 85e2 89be 99ba 93be
000002b0: ed9d 6fbe 2942 0cbe 0bc3 e3bd 211e 50be
000002c0: dcb9 9cbd 5b82 e6bd 7dad 26be d533 1ebe
000002d0: edd4 0bbe bdbd e6bd af77 3b3b 3105 86bd
000002e0: c832 2c3e c26d b13d 3409 8fbe 46dc 98be
000002f0: 7ed9 2ebd af9e 04be 08e8 cbbd 3cef 7b3e
00000300: ce12 ddbd c045 8cbe a8fd 393e 8440 d83d
00000310: 244f 233c f31a 3abe ba0f 42be 61d4 80be
00000320: 197f b1be e04a 69be 2660 3abe 0ee1 f9be
00000330: 595e 8c3d 856a 99be 9015 983d 41fc a9bd
00000340: 43b5 59be af8c 90be 1389 babe 5ac5 3ebe
00000350: af89 053e d177 ad3e 3038 ebbc 3e02 6abe
00000360: c9ca 943b 6513 5abe c72b 1ebe ed62 32be
00000370: 5175 b23d 307c ee3d fddd 59be dac0 72be
00000380: bdb7 81be 10b0 173e 1c7b 96be a63f 2ebe
00000390: 288e 73bd 202f b43e 7f7f 883d c45f 33be
000003a0: c4de 2bbe 1c51 703d 3306 f1bd 7635 6dbd
000003b0: dc73 9bbe a93d 44be 96d6 a7ba 8edc 54be
000003c0: 68f7 31be 786d caba d11b 8bbe d431 07be
000003d0: ce06 87be 0c0a 95be a474 62be d224 acbc
000003e0: cfae 8dbd 7c7f b5bd 5272 04be d365 70be
000003f0: ef3d e7bd 2d2e 88be 444f 97bd 32ab 34be
-0.35725737 -0.20595022 -0.34622565 -0.29126212 -0.26805234 0.39623654 0.17019553 0.002379926
-0.05296899 -0.30504122 0.041961484 -0.0695046 0.056233622 -0.12891068 -0.04640931 -0.097980805
-0.07678083 -0.23194091 -0.09841854 -0.39154422 0.08271666 0.11584479 -0.16556601 -0.23963486
-0.26493916 0.060578898 -0.19530098 -0.21522008 -0.11925209 -0.0061599184 -0.025584355 -0.13862011
-0.16310368 -0.17436439 0.22483677 -0.23496427 0.04630701 -0.26989865 -0.0633305 0.022524975
-0.19697419 -0.3200027 -0.19584084 -0.20832656 0.15398093 -0.2578649 -0.1781741 -0.17898095
0.129244 -0.4026582 0.15469885 -0.28450105 -0.30620548 -0.10556799 -0.21019736 0.070927314
-0.47140977 -0.07445134 -0.20878884 -0.28310975 -0.3266052 -0.13528764 -0.27198806 -0.064287916
0.32046047 -0.17738923 -0.16043161 -0.36506674 -0.21916485 -0.31212187 -0.17357434 -0.08802376
0.1617522 -0.3561836 -0.20142786 -0.02994573 0.26124325 -0.002907776 -0.04388529 -0.079375915
0.076447874 -0.048797347 -0.16860783 -0.026762508 -0.14192258 0.10674562 -0.31338978 0.111256674
0.24157365 -0.2385348 -0.109161586 -0.093650825 -0.11444955 -0.0075289225 -0.13655491 0.040124487
-0.31855747 -0.23265913 -0.14248542 -0.19927852 -0.25405785 -0.050174303 -0.10084796 -0.14351226
-0.2536426 -0.31438202 -0.12916727 -0.38814247 -0.18010415 0.12705536 -0.23066431 -0.21154211
-0.38361192 -0.24159373 -0.2619517 -0.28132716 -0.18531007 -0.08341843 0.09143391 0.039906885
-0.18830164 -0.075284064 -0.28664136 -0.30324477 -0.19774991 -0.13931683 -0.20497972 0.018725006
-0.103020474 0.18705864 -0.016467672 -0.04994289 -0.059106603 -0.06701298 0.23609453 -0.3430644
0.06103603 0.05921537 0.13053292 -0.20769295 0.03165333 -0.27086836 -0.21451402 -0.13884969
-0.0038156293 -0.316594 -0.13145699 -0.080672175 0.072495155 -0.1729938 -0.09021127 -0.047192898
0.2304362 -0.023302155 0.11102883 -0.3490895 -0.2009433 0.070776865 -0.06016939 0.13252474
-0.14590544 -0.46035102 -0.08385087 -0.34623486 -0.0057570715 -0.3133425 -0.0567793 -0.042373598
-0.16954996 -0.21514802 -0.26930633 -0.288533 -0.23400088 -0.13697113 -0.11121186 -0.20323993
-0.07652637 -0.11255332 -0.16277118 -0.1544946 -0.13655443 -0.112666585 0.0028605273 -0.06543959
0.16816247 0.08663513 -0.2793671 -0.29855555 -0.042687885 -0.12951158 -0.09956366 0.2460298
-0.10794602 -0.27396965 0.18163168 0.105591804 0.009967599 -0.18174343 -0.18951312 -0.25162032
-0.3466728 -0.22782469 -0.1820074 -0.48804516 0.06853933 -0.2996408 0.07425988 -0.08300067
-0.21260552 -0.28232333 -0.36432704 -0.18629971 0.13040803 0.33880475 -0.028713316 -0.22852418
0.0045407754 -0.21296461 -0.15446387 -0.1742055 0.087137826 0.11644781 -0.21276088 -0.2370638
-0.25335494 0.14813256 -0.293908 -0.17016467 -0.059461743 0.35192204 0.06664943 -0.17517
-0.16784197 0.058671102 -0.117687605 -0.057912312 -0.3036183 -0.19164146 -0.001280504 -0.2078726
-0.17379534 -0.0015444001 -0.2716966 -0.13202602 -0.2637238 -0.29109228 -0.22114807 -0.021013651
-0.06918108 -0.08862206 -0.12934235 -0.23476343 -0.1129111 -0.2659773 -0.073881656 -0.17643431

layer2.weight f4 [400, 400]
00000000: 964d 833e b26c fc3d 8e33 1c3e 459a 723e
00000010: b375 05bd 474e c7bd 69a3 f2bd a39c 7cbe
00000020: 8a47 94be 2c92 afbc 3d67 6dbc 0e4a 023c
00000030: 5f46 cfbe a0db 30be 0812 833d 2d2c 38be
00000040: 2839 43be 32c7 8a3a e71e 22be 56a0 983e
00000050: 631d 213e 1d91 02be ee91 243e 8c90 a5bd
00000060: bb13 3abd 1ad7 c6bc b1e8 dd3d 49a3 9fbd
00000070: 90b0 aebe a7ab fb3c b52b 00bd 2872 093f
00000080: 7ed1 70bd b624 113d 9580 b439 c65e 70bd
00000090: 36f3 e1bc bc3d 633e 9a63 f7bc 46f9 5d3b
000000a0: 251e b23b 8c9f a0bc 5c5a a9bc 98be 9b3c
000000b0: f698 50bd 1748 2b3d a56f cebe 899c f63c
000000c0: 49ef 273e b280 d2bd 64ad fbbe df02 043d
000000d0: 9a8e 133d 29ce e33b 0d41 a43d e74a 3abe
000000e0: 2f09 cd3e 6ea7 0dbe bcc0 6bbd 659d 1d3d
000000f0: e153 70bd d365 bbbd 5795 8cbd b62b 583e
00000100: 8164 1cbe 06f7 20bd cc50 433e cf09 8cbd
00000110: 613c 64bc 64d2 e43e bb32 46ba bf2f 6a3d
00000120: 93f7 18be bc16 b13d cb81 71bd 26d6 a4bd
00000130: a39f 5e3e d9ee 9b3d 63b2 9a3d d416 f93c
00000140: d4d1 a4be 3c32 85bd 4090 e53b e38a a8bc
00000150: 66f8 f1bd 2d70 70be 3c8c c5bc c8c4 6cbe
00000160: f764 8c3e 4d76 2b3e 8169 6b3c b548 8c3e
00000170: aac2 94bc 7827 a43d d850 313c c72d 8bbe
00000180: 162e a93d 65f8 263e 740d 80be 888f 5bbc
00000190: b525 9fbd 19fc eb3e 773e 73be 22d2 98bb
000001a0: 8a92 3abc 1b1f 0fbd 0cd1 b73e 4a64 0bbb
000001b0: b588 21be 5f99 8ebe 09bd 19be 3730 31be
000001c0: 30be 9c3a 6a46 b33c 4a94 173e 48ae 0b3d
000001d0: c9a9 83bd 686e 9f3e f0f6 3bbd c92e b53e
000001e0: cf20 40bc abf5 e63e 8954 a3bd a3a3 fa3e
000001f0: eee2 4f3e e6b3 70bd 925f 3abd 6c6c b6bd
00000200: 1089 ce3e 7635 5ebe 57f4 14be f67c 443d
00000210: 2eff 4e3e ea84 8dbd e206 c4be fa99 b7bd
00000220: 90e9 ae3c 73f7 7f3d 7dab c2be d2fc aabd
00000230: a06e 12be 7bba 02bd 7b29 f4bd e207 57be
00000240: 5c03 923e a30a 8cbc f1a3 a23e 4d76 c9bc
00000250: 7fdf 473e 57c8 21bb 220b 8abe b895 843d
00000260: 2596 e5be 4fef 093d a1b8 193d 2877 73be
00000270: a3ce 33bd d4c1 2d3e fa08 cd3c ee15 a53d
00000280: aa77 bb3c 5e3a 3ebe 1e07 d1bd 7b45 bbbd
00000290: 0f20 70bd cc59 6cbc 14f5 793d 2001 91bd
000002a0: f27c bc3c 2cdc c0bd 4faa 98bd 644a bf3c
000002b0: 6eba ab3d dca8 d23e 0fa0 5b3c b82e db3d
000002c0: d0ad 0d3c be70 eb3e ff5d d93c 7c89 e6bd
000002d0: 5ef7 8dbe 88f4 093b f2d1 323d 7c5e 54bd
000002e0: d5d3 ec3c c6ad c83e 68d1 2bbe 3031 88be
000002f0: f8ef 3dbd 309c 533d 99bb 40bf 9d51 413e
00000300: 8cac 8dbd 816f 11bd eb16 4dbe e4f3 1abd
00000310: bc24 05bd 79b6 9dbe 5fb3 823c a3cf 923c
00000320: 6e66 4bbd eba7 ccbc 64d4 74bf 411d f03e
00000330: 995d a4ba c9d6 973d aa5d 01be 0ccf cdbd
00000340: 4f51 63be d991 70bd d7b8 763c b5e7 433d
00000350: c494 88be c397 86bf 9a20 9e3c 1be1 97be
00000360: a388 f63d 8de1 c1bd 080a c83e 2bd2 11be
00000370: d29c 0ebf d0f0 9d3c 7ee9 163e e92e 973d
00000380: 41e1 ce3d 7e4b 913e e3f5 c6bd eedc 28be
00000390: df2c 903c 8e01 d13d 4682 4bbd dc3b e8bd
000003a0: 6a02 943d ee76 dabe 4fb5 20bd e01e 8dbc
000003b0: 3580 42ba b3ac eebc 8ccc b33d ba98 1f3f
000003c0: b55c 443d a151 a4bd 745c 64bd 5868 433d
000003d0: 32ff 8f3d 3287 bc3c 1e7b 0d3d aebf 863e
000003e0: ef78 85bd eadb b13e f9ed 2e3b 8905 2b3d
000003f0: f81b 4b3d d0ef 0c3d 76ba b33d 59ad 98bd
0.2564513 0.123254195 0.15254042 0.23691662 -0.03258295 -0.09731727 -0.11847574 -0.24669127
-0.2896083 -0.021432005 -0.014489946 0.007952226 -0.40483376 -0.1727128 0.063999236 -0.17985602
-0.19064772 0.0010587929 -0.15832101 0.29809827 0.15733866 -0.12750669 0.16071293 -0.08084211
-0.045428973 -0.02427249 0.10835398 -0.07794816 -0.34119081 0.030721499 -0.031291682 0.53689814
-0.058793537 0.0354354 0.00034428076 -0.058684133 -0.027581792 0.22191519 -0.03019886 0.0033870502
0.0054357224 -0.019607328 -0.02067297 0.01901178 -0.050927125 0.041816797 -0.40319553 0.030103939
0.16399874 -0.10278453 -0.49155724 0.0322293 0.036024667 0.0069520664 0.0802022 -0.18192635
0.4004607 -0.138334 -0.057556853 0.03848018 -0.058673743 -0.09150281 -0.06864422 0.21110424
-0.15272714 -0.03929808 0.1907379 -0.06837808 -0.013930411 0.44691765 -0.000756066 0.05717444
-0.14938192 0.08646914 -0.05896167 -0.08048658 0.21740584 0.07613916 0.07553556 0.030406393
-0.32191336 -0.06503722 0.0070057213 -0.020574039 -0.11814956 -0.23480292 -0.02411472 -0.23121941
0.2742078 0.16744347 0.014368416 0.2739922 -0.01815923 0.080153406 0.010822497 -0.27183363
0.08260743 0.16305692 -0.25010264 -0.01340092 -0.07770864 0.46090773 -0.23754297 -0.0046637217
-0.011387477 -0.034941774 0.35901678 -0.0021269494 -0.15774806 -0.27851388 -0.15013517 -0.17303549
0.0011958536 0.021884162 0.14802662 0.034101754 -0.06428868 0.3113892 -0.045889795 0.35387257
-0.011726572 0.45109305 -0.07975108 0.4895297 0.2030141 -0.058765315 -0.0455013 -0.089073986
0.40338945 -0.21700081 -0.14546333 0.047970735 0.20214531 -0.06910117 -0.382865 -0.089649156
0.021351606 0.062491845 -0.3802146 -0.08349003 -0.14300013 -0.031916123 -0.11921974 -0.20999101
0.28518188 -0.017094916 0.31765702 -0.024592543 0.1951885 -0.0024686062 -0.2696162 0.06473869
-0.44841114 0.033675488 0.03752959 -0.23775923 -0.043898236 0.16968471 0.025028694 0.080608234
0.022884209 -0.18576953 -0.102064356 -0.09144112 -0.058624323 -0.014425706 0.06102474 -0.07080293
0.023008797 -0.094169945 -0.07454359 0.023350902 0.08385168 0.41144454 0.01340486 0.1070227
0.008647397 0.45984453 0.026534079 -0.11256692 -0.2772779 0.0021050293 0.04365725 -0.05184792
0.028909603 0.3919508 -0.16779101 -0.26600027 -0.04637143 0.051662624 -0.7528625 0.18878789
-0.06917676 -0.03550673 -0.20028274 -0.03783025 -0.032505736 -0.30803278 0.015954671 0.017921275
-0.04965823 -0.024982413 -0.9563658 0.4689732 -0.0012540101 0.07414014 -0.12633386 -0.10049257
-0.22198986 -0.05873284 0.015058718 0.047828395 -0.26676 -1.0515064 0.019302655 -0.2966393
0.1203778 -0.094668485 0.39070153 -0.14240329 -0.5570804 0.019279867 0.14737508 0.07381994
0.101015575 0.28377908 -0.09714868 -0.16490528 0.017599521 0.10205375 -0.049684785 -0.11339542
0.07227023 -0.4266886 -0.03923541 -0.017226636 -0.0007419617 -0.029135084 0.087792486 0.6234242
0.047939975 -0.08023382 -0.055752233 0.04770693 0.070310965 0.023013685 0.03454124 0.26318115
-0.06517207 0.34738094 0.0026692136 0.041753326 0.04958722 0.03440839 0.08775799 -0.074549384

layer2.bias f4 [400]
00000000: 5faf b43c 1f43 603e 4ad5 abbd 580e 9dbd
00000010: e6e6 5ebd a562 9bbd 143a 3abd e4fc eabd
00000020: 550d afbd cca2 45bd 5cef a83e f4ba a9bd
00000030: deac 7cbd dba5 003e 1580 d2bd 0d89 4ebc
00000040: 8a4b 17bc 0fa2 13be 9574 81bd f317 bbbc
00000050: c2fd 093e 43e1 00be fe61 adbd f770 b1bd
00000060: 2104 cbbe 74b4 003d ed90 2bbe 51a3 f9bd
00000070: b480 38be 75ed 97bd 9a72 7cbe aa5e 47bd
00000080: a6d4 d83d 38d4 15be 19f4 17bd 1600 96bd
00000090: 4638 e5bd 4176 78bd f01c 34be 0d33 ef3c
000000a0: 0015 bb3d faf8 a0be fe90 413e 0129 9fbd
000000b0: b2c7 71bd d92f 2ebd 9e04 b8bd 76ff ee3e
000000c0: 604f 853d 9f71 b0bd 92af 19bd 2197 a3bd
000000d0: b0f3 51bd 1052 7ebd 985d 103e e3df 6cbe
000000e0: e13c 65be 33e3 f63e 16ca 0bbe a628 043e
000000f0: 266c b6be e031 00bf 6b34 7abd 0ad8 7dbd
00000100: c653 c0be b7f1 63bd ca18 96be 687a debd
00000110: c6dc 4ebe 2f2b 94bd 2e95 76bd b545 9d3e
00000120: 452a 52bd c55c e8bd 87c7 36be bbb8 8cbc
00000130: 5bf9 77bd 8d78 39bd dc86 e7be 416d 01be
00000140: 9caf 91bd e79c 0abf 0823 adbd 188e e2bc
00000150: 3a48 03bd d3d2 703c afcb 4dbc df14 33be
00000160: 181c bebd a9cd b73e abf9 c4bd e607 d9be
00000170: 93ef bbbe 8085 b6be 63d0 94b8 da2a 00be
00000180: 7cf8 74bd c795 e5bc fa24 82bd 7982 acbd
00000190: 25dc b5bd 46a1 803e f0c0 0ebe eb44 efbd
000001a0: f068 83bd b120 2bbf f8d8 6fbe 3054 aebd
000001b0: ea29 1fbe dab2 25be d1b2 69be de21 09be
000001c0: eeeb c4bb aad1 ecbc 5bea 39be 2ac1 cfbd
000001d0: faa1 ebbb 00e2 9ebd cbf2 05be f405 8abe
000001e0: a94f 26be fe56 aabd 3f37 213e 8dcc 01be
000001f0: 9954 0fbd 2c67 b0be 1489 b6bd 6d7c 91bd
00000200: 923c b0be 08a8 08bf 86e4 25be 72dd f0bd
00000210: 87c0 2bbd 75e9 16be 94a5 a8bd dd96 76be
00000220: 9015 d0bd 3850 ffbc c4a9 b7bd 6b46 36bd
00000230: 8f44 19be 6094 e0bd a599 213e 4d6b 9ebd
00000240: 0324 7d3e aeb2 8fbe ea53 bebd e7d1 97bd
00000250: 08cf 61bf 3ce9 abbe 1c51 12bf 7991 99be
00000260: 0236 2ebf 6944 c6be c405 5abd c92b c93e
00000270: 0ad3 2fbe 72b6 b2bd de66 eabe 84df 41be
00000280: 0734 683e 3854 25be 3e70 e0be f769 1fbd
00000290: a7ea be3e 0246 2cbd 8c3c aabd 321c 76bd
000002a0: 8228 67bd 8bb8 34bf 1b74 03be c997 dfbd
000002b0: 045e 91be 231c 3bbe 191c 7fbe 931f 07be
000002c0: e4f5 51be 61db d7be ea42 43be 9a97 5cbe
000002d0: 23d8 aebd a550 58bd b866 03be 8303 63bd
000002e0: d78f eebd 8d04 9fbd 1bf9 65be 7914 0fbe
000002f0: 378c eabd 5b9b 06be 6f98 aabd f66a 84bd
00000300: 2f52 99be fbb7 79bf b330 dabd 6b4c dfbd
00000310: 3db9 163e b61f 00be ad88 bebd bc28 37be
00000320: 4379 b0bd fe2c ccbd 4989 60bd 975c 26be
00000330: 4509 26bf e36c 1ebe 3f32 efbd ccb2 8fbd
00000340: 6c13 c2bd 6af2 3ebb 978d bcbd 88ab a0be
00000350: b8f0 c53e 2832 4a3e b8f5 423c caaf c4be
00000360: e88d d8bd 0cbc b3bd f088 a1be 2c57 a1bd
00000370: d055 f2bd dd5a f0bd 2556 30be 0f23 143e
00000380: d7e0 82bd f60c 58be 1314 873e f201 66be
00000390: a6c7 d23e faa7 07be e724 a0be 64bf 33bd
000003a0: 2d1e 27bd 5bcc ccbc 9a4f d2bd 4b33 c6bd
000003b0: d93c 34be 4def f8be d3ca 09be c76e a0bd
000003c0: 4562 e5bd 566e 8f3e 35e3 58bd 0b76 6fbe
000003d0: 32ee 173e 623d 39be 5d10 cfbd 9aa5 03bd
000003e0: a643 42bd ce41 64bd 75fc bdbc 0fd2 cd3c
000003f0: 5b3b 803c a81d f2bd 11b8 9cbd c07d 47be
0.02205628 0.21900605 -0.08390291 -0.076687515 -0.05441942 -0.07587174 -0.045465544 -0.11474016
-0.08547465 -0.04825096 0.32995117 -0.082876116 -0.061688296 0.12563269 -0.10278336 -0.012605918
-0.0092343185 -0.14417289 -0.063210644 -0.022838568 0.13475707 -0.1258593 -0.08465956 -0.086641245
-0.39651588 0.031422094 -0.16754504 -0.12189353 -0.18017846 -0.07418338 -0.24653092 -0.048674263
0.105874345 -0.14631736 -0.037098024 -0.07324235 -0.11192374 -0.06065965 -0.17589164 0.029199148
0.09134865 -0.31439954 0.18902966 -0.07771493 -0.059028335 -0.0425261 -0.08985256 0.46679276
0.0650928 -0.086154215 -0.037520953 -0.0798781 -0.05125779 -0.06208998 0.14098203 -0.23132281
-0.22386505 0.48220214 -0.13651308 0.12906131 -0.35629386 -0.50076103 -0.061085146 -0.06197361
-0.37563914 -0.05565044 -0.29315788 -0.10863191 -0.20201406 -0.07234799 -0.060200863 0.30717245
-0.051309843 -0.113458194 -0.17849551 -0.01717793 -0.06054054 -0.04528098 -0.45220077 -0.12639333
-0.07113573 -0.54145664 -0.08453947 -0.027655646 -0.032051302 0.014698702 -0.012560769 -0.1748843
-0.09282702 0.35899094 -0.09617933 -0.4238884 -0.36706218 -0.35648727 -7.096005e-05 -0.12516347
-0.059807286 -0.028025521 -0.06354709 -0.08423323 -0.0887988 0.25123042 -0.13940787 -0.11683067
-0.064164996 -0.6684676 -0.23422611 -0.08512151 -0.15543333 -0.16181508 -0.2282212 -0.13391826
-0.0060095703 -0.02890857 -0.18155806 -0.10144265 -0.00719094 -0.0775795 -0.130809 -0.26957667
-0.16241325 -0.08317374 0.15743731 -0.12675686 -0.034992788 -0.34453714 -0.08912864 -0.071038105
-0.3442121 -0.53381395 -0.16200456 -0.11760987 -0.041931655 -0.14737494 -0.082347065 -0.24080987
-0.10160363 -0.031166181 -0.08967927 -0.04450075 -0.1496756 -0.109658 0.15781267 -0.0773531
0.24720769 -0.2806601 -0.09293349 -0.074130826 -0.8820653 -0.3357638 -0.57155013 -0.299938
-0.6805116 -0.38724068 -0.053228155 0.39291218 -0.17170349 -0.08726205 -0.45781606 -0.1893292
0.22676097 -0.16145408 -0.43835634 -0.038919415 0.372884 -0.042058952 -0.0831233 -0.060085483
-0.056435116 -0.7059409 -0.1283726 -0.109176226 -0.2839204 -0.18272452 -0.24913062 -0.13195638
-0.20503956 -0.4215956 -0.19068494 -0.21542206 -0.085373186 -0.052811284 -0.12832153 -0.05542327
-0.11648529 -0.0776454 -0.22458307 -0.13972653 -0.11452525 -0.13145201 -0.08329856 -0.06465714
-0.29945514 -0.97546357 -0.1065382 -0.109032474 0.147191 -0.12512097 -0.093034126 -0.17886633
-0.08616879 -0.09969519 -0.054818425 -0.16246258 -0.64857894 -0.15471224 -0.116795056 -0.07016525
-0.09476361 -0.002913619 -0.092066936 -0.31380868 0.38660216 0.19745696 0.011899404 -0.38415366
-0.105739415 -0.087761015 -0.31549788 -0.07877955 -0.11832774 -0.11736081 -0.17220362 0.14466499
-0.06390541 -0.21098694 0.26382503 -0.2246168 0.41167945 -0.13247672 -0.31278154 -0.043883696
-0.040800262 -0.024999788 -0.10269089 -0.09677752 -0.17601337 -0.48620072 -0.13456278 -0.07833629
-0.11200384 0.28013867 -0.052951057 -0.23384874 0.14836958 -0.18089822 -0.10110543 -0.03214035
-0.047427796 -0.05572682 -0.02319167 0.025124578 0.015653303 -0.11822063 -0.076522954 -0.19481564

layer3.weight f4 [4, 400]
00000000: f586 2f3f 0bc8 f03e 0323 46bd 32ac e0bc
00000010: 6156 70be c412 c33b 885c 1ebd 902c 4a3f
00000020: 00b4 70bc 894d 18bc 1415 913f 48f6 203c
00000030: 8de3 0bbd c248 9bbd fa32 273d 17b4 533c
00000040: abf8 183e ad3b 033e cbbf b13d b1ce 6e3e
00000050: 250e 383f 940b 8bbc 7073 9b3c 8534 fa3c
00000060: f2cc 13bd cca1 b7be f748 90bd 5ba8 b13c
00000070: dbd8 6f3c 8b5f 69bd e0f5 bebe 14f3 04bd
00000080: b450 d33e 55b3 003d 1a6a 66bd efb1 003c
00000090: 59bf 303d a6d1 8fbc be5f 083d a1e4 a03e
000000a0: 7c4b b2be 6abd 0ebe 5b9e 813e ca39 9b3b
000000b0: 8057 983b e455 2b3c 96e3 60bc 38b3 1c3e
000000c0: 1609 07bd a8b6 0e3c 5ee9 09bd 0d7a 8bbb
000000d0: bf42 bc3c 7116 0f3e 7a5d ffbe e050 03be
000000e0: 26c8 f6bd 127b 0e40 43ab a0be d206 d43e
000000f0: 11e6 913a 35d6 23be 1a7a 6bbd 9d36 123c
00000100: 327c 4fbe 4c9b 83ba ad4f 083e 12ec 0dbe
00000110: b0b1 513d 66da f8bc a8dc 96be 0611 9a3e
00000120: 454b 2c3e 5ffd 4dbd 7cbf 4abd c8fa c73e
00000130: a789 803c cec5 123e cc3d 49be bf12 b63c
00000140: 51d7 033d 91f0 93bd 1e00 773d 172e debc
00000150: 3e6c 12bc cf46 b23e de61 05bd 933f d03d
00000160: 5fd6 f73c 74c6 a43e e937 333f 7820 b5bd
00000170: 06d5 5cbd b69d 603f 73f0 253d 05f1 f8bb
00000180: f623 b43c d18c 3fbc 7f05 0f3d d805 d83c
00000190: f90b e4bb 110c 053f 917b ae3d bffd 633d
000001a0: 7067 0538 fa68 43bb dc0b b1bc e001 6e3c
000001b0: 42d4 f13c ec03 abbd b838 863f ad51 f23c
000001c0: abaa 8a3e 1bb9 d13e f344 923b af32 f0bb
000001d0: 74ce 9b3c fa67 46bc c81f 5f3e 9543 2e3d
000001e0: b2b3 893c 4b0b 963c 9ada 873c 3494 85bb
000001f0: 5290 4f3e 32e3 ddbd f4e1 44bc 8fe4 81bc
00000200: 9dcc 833b 4f75 303e 0037 bbbc f5e7 bdbc
00000210: 6149 5138 437f aa3e 028f bbbd cb98 b03c
00000220: f7c7 abbc c09c 4cbc a6f9 263d ea32 f6bc
00000230: b427 163d c6c4 28bd f7a7 37bd 2e3d cc3c
00000240: da09 c7bd b29d fbbc 2498 77bd 6495 323e
00000250: 2fe7 b33e f858 c7bc f1e3 823e 486b 643d
00000260: 70ac 353e a1f9 d53d ac54 ddbc 5300 273f
00000270: 2546 b43c e76f 023c ef54 47be ac62 0b3d
00000280: d1ed ec3d 185a b1bd aade 14bf 8bf8 51bd
00000290: b855 e7be 09e2 96ba 5acd 1bbd ad1e 55bd
000002a0: bdb6 39bd 8480 fcbc 26c0 c93c 619e 85bc
000002b0: 225b 34be 372b d83d 87a4 053f 4023 bcbb
000002c0: 98f8 183d 584a 85bd 5558 683c 8e03 573e
000002d0: 2ca4 453b b756 c93c 6416 8b3c 772c 8ebc
000002e0: 8c4d 7bbd 76bf 613b 3fc2 923e 0da7 cb3d
000002f0: 2dbf cc3c f632 6ebe c9b7 f7bd ab4e 9c3b
00000300: bcfe 59be 11d4 c93c bfc0 cc3d 6066 2b3e
00000310: 28e6 09bf 1606 6f3c 4b28 f93e e98b ee3d
00000320: e52e eabc 5c4e f13c 86eb 4dbb 094e 973e
00000330: 475d 6bbe c2d1 b13b abae 01bd 1e85 7cbd
00000340: 9ed0 093e b2bc 83be d2a2 053c 8b7c 813e
00000350: 54d8 55be 7643 42bf 0818 26be 6226 89bd
00000360: 4ecb ed3c b69e 38bd 033b f0be f378 6abc
00000370: 95a7 bbbd d60c ccbb 67e9 323d 4ee6 613e
00000380: 4dac a83d 06f3 7bbd 6f2d a93e 0857 043e
00000390: 5a28 e23e 4933 d03b 1ccf ad3e 0ba4 3cbd
000003a0: 6801 cfbb 9516 13bd 37cb 61bb fd92 b33c
000003b0: 8aa6 4e3e 2bbc 50be 1315 893c 4236 b33b
000003c0: 0a8f 043d dbec 5d3f 7286 b33c 7add 9ebe
000003d0: 39fc aa3e 586b 673d 7ba9 76bd 0328 08bd
000003e0: 15d1 22bd db1c e33c a509 c63e 182b cc3e
000003f0: 88a0 873d 30cb 733b 1e27 fcbc 851f 283e
0.68565303 0.4702762 -0.048373234 -0.02742586 -0.23470451 0.005953165 -0.038662463 0.78974247
-0.014691353 -0.00929583 1.1334558 0.009824343 -0.034152556 -0.07582237 0.0408201 0.012921355
0.1493861 0.12815733 0.0867916 0.23321034 0.7189658 -0.016973294 0.018975943 0.030542621
-0.036084123 -0.3586563 -0.07045167 0.021686723 0.014639105 -0.056975883 -0.37296963 -0.03245838
0.4127251 0.031421024 -0.05625353 0.007854923 0.043151233 -0.017556023 0.033294432 0.3142443
-0.34823215 -0.13939443 0.25316128 0.0047371136 0.0046491027 0.01045749 -0.013726136 0.15302742
-0.03296765 0.008710541 -0.033669822 -0.004256493 0.022981046 0.13973404 -0.49876004 -0.1282382
-0.12049894 2.2262616 -0.31380662 0.41411453 0.0011131187 -0.15999682 -0.057489492 0.008924154
-0.2026222 -0.0010040789 0.13311644 -0.13859585 0.051194847 -0.030377578 -0.29465222 0.30091113
0.16825588 -0.05029046 -0.04949902 0.39058518 0.015690638 0.14333269 -0.1965248 0.022225736
0.032187764 -0.07223619 0.060302846 -0.027121587 -0.00893694 0.34819648 -0.032564037 0.10168376
0.030253587 0.32182658 0.7000719 -0.088440835 -0.053914092 0.8774065 0.040512513 -0.007597091
0.021989804 -0.011691288 0.03491735 0.026369974 -0.006959435 0.51971537 0.08519662 0.055661913
3.1806005e-05 -0.002981721 -0.0216121 0.014526814 0.029520158 -0.083503574 1.0486059 0.029579962
0.27083334 0.40961537 0.004463786 -0.0073302607 0.019019343 -0.012109751 0.21789467 0.04254492
0.016809318 0.018315932 0.01658373 -0.004076505 0.20269898 -0.1083435 -0.012016762 -0.015856056
0.0040221945 0.1723225 -0.022853374 -0.023181895 4.9897822e-05 0.33300218 -0.09158136 0.021557232
-0.020969374 -0.012488544 0.040765427 -0.030053575 0.036658958 -0.041203283 -0.044837918 0.024931516
-0.09718676 -0.030714843 -0.060447827 0.174398 0.35137317 -0.024334416 0.2556453 0.055766374
0.17741561 0.104480036 -0.027017914 0.6523487 0.022006104 0.00796125 -0.19465993 0.034029648
0.115687974 -0.08659762 -0.5815226 -0.05126242 -0.45182586 -0.0011511456 -0.038037635 -0.052031208
-0.04534029 -0.030823 0.024627756 -0.016310873 -0.1761289 0.105551176 0.52204174 -0.005741507
0.037346452 -0.065083206 0.014181216 0.2099745 0.0030157669 0.024577482 0.01697845 -0.017355187
-0.06135325 0.0034446395 0.28663823 0.09943972 0.024993503 -0.23261628 -0.12095601 0.00477012
-0.2128858 0.024637254 0.09997701 0.16738272 -0.53866816 0.014588853 0.48663554 0.116477795
-0.028586814 0.02945631 -0.00314209 0.29551724 -0.22984801 0.0054266164 -0.031660717 -0.061650388
0.13458487 -0.257299 0.008156495 0.2529033 -0.20883304 -0.7588419 -0.16220105 -0.06696774
0.029027607 -0.045073234 -0.46920022 -0.014311063 -0.09162823 -0.006227116 0.04367962 0.2206051
0.08235989 -0.061511062 0.33042476 0.12923825 0.4417141 0.00635377 0.33947074 -0.04605488
-0.0063173063 -0.035910208 -0.00344534 0.021920675 0.20180717 -0.2038428 0.016733682 0.0054691145
0.032362975 0.8668954 0.021914694 -0.31028348 0.33395556 0.056498855 -0.060220223 -0.033241283
-0.039750177 0.02772372 0.38679233 0.39876628 0.06622416 0.0037199967 -0.030780371 0.16418274

layer3.bias f4 [4]
00000000: 2e61 a93e 3188 a7be cb1e c5bd d4be 763e
0.33081955 -0.32721093 -0.09625014 0.24096233
