runs/bipedalwalker.pt (torch, 690692 bytes, 6 tensors)

l1.weight f4 [400, 24]
0	0x401e5e30	2.4744987
1	0x40b5b43d	5.6782517
2	0xbf0e20cd	-0.555188
3	0x3f35c2b7	0.71000236
4	0xbdccf292	-0.10007204
5	0x3d1e8b06	0.0387068
6	0x3c8cba5d	0.017178709
7	0x3e05a24a	0.1305019
8	0xbd08421a	-0.033266164
9	0x3f2b687d	0.6695631
10	0x3eb8ba4a	0.36079627
11	0xbe8df8ec	-0.27728975
12	0xbc877b8f	-0.01653841
13	0xbde71daf	-0.112849586
14	0x3e0feb5d	0.14054628
15	0xbcd3e106	-0.025864135
16	0x3e533953	0.20627336
17	0x3dfb7d50	0.12279761
18	0x3e215eb9	0.1575879
19	0x3e69f95a	0.22849026
20	0x3d9c41c6	0.07629733
21	0x3e8c7767	0.27434847
22	0x3cf0921c	0.029366545
23	0xbc0f0975	-0.008730282
24	0x3fd30f6c	1.6489081
25	0x40883818	4.2568474
26	0xbe93ebfa	-0.28890973
27	0x3e5aea94	0.21378547
28	0x3f8b084b	1.0861906
29	0xbe9ac396	-0.30227345
30	0xbfa300f9	-1.2734672
31	0xbdfc0de5	-0.12307338
32	0x3efcd2ab	0.49379477
33	0x3de892ec	0.11356148
34	0x3f473c8d	0.7782677
35	0x3e8eab87	0.2786524
36	0x3ee43e0b	0.44578585
37	0x3da87a32	0.08226432
38	0xbe2ad1f5	-0.16681655
39	0xbd6b9fe6	-0.057525538
40	0xbe576cb1	-0.21037556
41	0xbcbf057e	-0.023318049
42	0xbd228c5a	-0.03968463
43	0xbd366fcb	-0.044540208
44	0xbe4552ae	-0.19269821
45	0xbdcfbf9b	-0.10143968
46	0x3c1a41d3	0.009415108
47	0xbe6260de	-0.22107264
48	0xbef23a94	-0.47310317
49	0xbf24ec66	-0.64423215
50	0xbf24b3b9	-0.64336735
51	0x3f2f12cd	0.6838806
52	0xbe41a8cb	-0.18912046
53	0x3ec4211d	0.38306513
54	0xbef319eb	-0.4748071
55	0xbc86d665	-0.016459653
56	0xbf1e9574	-0.619468
57	0xbe3daab1	-0.18522145
58	0x3e496c2a	0.19670168
59	0xbe17bec9	-0.14818873
60	0x3f33ee5f	0.702856
61	0xbf9f2312	-1.2432578
62	0x3d4240d8	0.04742512
63	0xbdae7475	-0.08518306
64	0x3d15105d	0.03639256
65	0xbda0bd1c	-0.0784857
66	0xbc81218e	-0.01576307
67	0x3d16e997	0.036843862
68	0xbe2766e8	-0.1634785
69	0x3c0e5e8e	0.008689536
70	0x3e0b5b39	0.13609017
71	0xbd485548	-0.048909456
72	0xbdf76f4b	-0.12081774
73	0x3f02e611	0.51132303
74	0xbefd4b9f	-0.49471757
75	0x3fad5b9b	1.3543581
76	0xbe531bbb	-0.20616047
77	0x3d9217ef	0.07133471
78	0xbe522007	-0.2052003
79	0x3de611c5	0.11233858
80	0x3ee6daf2	0.45088917
81	0x3ea336ba	0.3187769
82	0x3dcb5091	0.09927476
83	0xbf132261	-0.57474333
84	0xbdc4d0e9	-0.09610159
85	0x3e8005e1	0.25004485
86	0xbe9e130e	-0.30873913
87	0xbedbf80e	-0.42962688
88	0xbed1beee	-0.4096598
89	0xbebab788	-0.36468148
90	0xbec61ece	-0.38695377
91	0xbee6f62f	-0.45109698
92	0xbea9098a	-0.3301509
93	0xbe950414	-0.29104674
94	0xbf08b507	-0.53401226
95	0xbeb7d382	-0.35903555
96	0x3e131a48	0.14365494
97	0xbf9b172d	-1.2116448
98	0x3ee19b2f	0.44063708
99	0x3e04b665	0.12960203
100	0xbec24e22	-0.37950236
101	0xbe478bfd	-0.19486995
102	0xbf8dccc8	-1.1078119
103	0x3ea23e82	0.31688315
104	0xbcfd43e7	-0.030916167
105	0xbedee827	-0.43536493
106	0x3e040141	0.12891103
107	0x3f4730d2	0.7780887
108	0x3f255759	0.64586407
109	0x3ec89195	0.3917357
110	0xbe2355e9	-0.15950741
111	0xbe3dc682	-0.18532756
112	0xbe08ae19	-0.13347663
113	0xbd893527	-0.06699591
114	0xbe8dd49c	-0.2770127
115	0xbe75497b	-0.23953812
116	0xbe2d766e	-0.16939709
117	0xbe254144	-0.16138178
118	0xbdcc36ea	-0.099714115
119	0x3e0c2973	0.13687687
120	0x3f070b10	0.52751255
121	0x3fd176f8	1.6364431
122	0xbf3ae8f1	-0.7301169
123	0xbc08ba7e	-0.008345244
124	0x3eda54ce	0.42642826
125	0x3f0849d9	0.5323768
126	0xbe70331d	-0.23456998
127	0x3e27be5c	0.1638121
128	0xbf59259b	-0.84823006
129	0x3e2006ec	0.1562764
130	0xbe38a03e	-0.18029878
131	0x3e3f0c59	0.18657054
132	0xbc8893da	-0.016672064
133	0x3d398555	0.04529317
134	0xbe7cc177	-0.24683176
135	0xbe44ffc6	-0.19238195
136	0xbe640eb2	-0.22271231
137	0xbde3109d	-0.11087153
138	0xbe8a2f21	-0.26989082
139	0xbdfc8895	-0.123307385
140	0xbe4a367b	-0.19747345
141	0xbe2167e4	-0.15762287
142	0xbe9946c4	-0.29936802
143	0xbed360d4	-0.41284811
144	0xbf0c4b62	-0.54802525
145	0xbf907ec1	-1.1288682
146	0x3f5b4f41	0.85667807
147	0xbf20c739	-0.6280399
148	0xbf1b548a	-0.6067587
149	0xbe140039	-0.1445321
150	0x3d974890	0.07386887
151	0x3df87ae1	0.12132812
152	0x3c2215a4	0.009892855
153	0xbf266cb5	-0.65009624
154	0x3dbea03c	0.09307906
155	0xbe32650b	-0.17421357
156	0xbaf657d5	-0.0018794487
157	0xbe575c49	-0.21031298
158	0xbdd776fb	-0.105207406
159	0xbe938ada	-0.28816873
160	0xbe93df1d	-0.2888116
161	0xbe0b0e12	-0.13579586
162	0xbe95c5fe	-0.2925262
163	0xbe905046	-0.28186244
164	0xbea14de5	-0.3150474
165	0xbe6752e2	-0.22590211
166	0xbe6afc8a	-0.22947899
167	0xbd1d1245	-0.0383475
168	0x3b4f2afd	0.0031611316
169	0xbe88ee1f	-0.26744172
170	0x3e8586be	0.26079363
171	0xbe900a8d	-0.2813305
172	0xbe171e24	-0.14757591
173	0x3e27172a	0.1631743
174	0x3e7b2a06	0.2452775
175	0x3e668763	0.22512583
176	0x3d807b4b	0.06273516
177	0xbc08ddd7	-0.008353672
178	0x3e728f27	0.23687421
179	0xbd2d52b4	-0.0423152
180	0xbd150bff	-0.036388393
181	0xbde132cd	-0.109960176
182	0xbe52a588	-0.20570958
183	0xbe242b46	-0.16032133
184	0xbea06084	-0.31323636
185	0xbe76dd4d	-0.24107857
186	0xbe954e29	-0.29161194
187	0xbec21044	-0.37903035
188	0xbe4ece18	-0.20195806
189	0xbeb5ff29	-0.35546234
190	0xbe84043c	-0.2578448
191	0xbeb68422	-0.35647684
192	0x3f349c9a	0.70551455
193	0x400ecb73	2.2311676
194	0xbe2692a8	-0.16266882
195	0x3e8ff07d	0.28113165
196	0x3c376c1f	0.011195212
197	0xbecd0ca6	-0.40048712
198	0x3d6f5683	0.058432113
199	0xbd9f38d0	-0.07774508
200	0xbc83c3af	-0.01608452
201	0x3eae2fa5	0.34020725
202	0xbf147e59	-0.5800529
203	0x3f862368	1.0479555
204	0xbd87783d	-0.066147305
205	0xbf7fb610	-0.9988718
206	0xbddf15c7	-0.108928256
207	0x3ce1eb4e	0.027578022
208	0xbd3f6299	-0.04672489
209	0xbd1b7b22	-0.037959225
210	0x3d692417	0.056919184
211	0x3d76ccfc	0.060254082
212	0x3d1c0345	0.038089056
213	0x3d26ab5f	0.040690776
214	0xbe269da5	-0.16271074
215	0xbe54dad5	-0.20786603
216	0xbee6867c	-0.45024478
217	0xbfcfbf5e	-1.6230276
218	0x3f3b7e92	0.73240006
219	0xbe2c09bf	-0.16800593
220	0xbe7f9836	-0.24960408
221	0xbe37ff49	-0.17968477
222	0xbed983d6	-0.42483395
223	0xbe4bbc0f	-0.19895957
224	0xbeb73e4f	-0.35789725
225	0xbf8a562d	-1.0807549
226	0x3d967399	0.07346267
227	0xbf03ae2d	-0.51437646
228	0x3ecc0fb6	0.39855736
229	0x3d45a046	0.04824855
230	0xbdd302c1	-0.1030326
231	0xbe6eaeff	-0.23308943
232	0xbe278fdc	-0.16363472
233	0xbe0586a0	-0.13039637
234	0xbe287c47	-0.16453658
235	0xbe12c711	-0.1433375
236	0xbe9a81f3	-0.30177268
237	0xbe7bb4eb	-0.24580733
238	0xbe3b86c0	-0.18313122
239	0x3e04a010	0.12951684
240	0xbeb1078b	-0.34576067
241	0x3eb5e76a	0.35528117
242	0x3e927b1e	0.28609556
243	0xbea7b80c	-0.32757604
244	0x3e4e04f2	0.20119074
245	0xbe780a6f	-0.2422273
246	0xbebcdd2e	-0.36887497
247	0x3f12e13b	0.57374924
248	0x3f1bae6a	0.6081301
249	0xbee71475	-0.45132795
250	0x3f2e9557	0.68196625
251	0xbf2e0382	-0.679741
252	0xbd08a06f	-0.033356126
253	0xbf8933ef	-1.0718974
254	0xbdc9712e	-0.098360404
255	0xbdce9f6b	-0.10089

l1.bias f4 [400]
0	0xbe2689a8	-0.16263449
1	0xbe27a43d	-0.16371246
2	0xbd052daf	-0.03251427
3	0xbed38cd1	-0.41318372
4	0x3d8ddc4a	0.069267824
5	0xbeb7646a	-0.35818797
6	0x3e67981f	0.22616623
7	0xbe1da9d0	-0.1539681
8	0xbde731d3	-0.112888
9	0x3e6c1a99	0.23057021
10	0xbdfd99b1	-0.1238283
11	0xbe13ed1d	-0.1444592
12	0xbe8b6e00	-0.2723236
13	0xbd6cc58c	-0.057805583
14	0xbebbd14c	-0.36683118
15	0xbea4407c	-0.32080448
16	0x3d811d07	0.06304365
17	0xbe824d7a	-0.25449735
18	0xbe8989b8	-0.26862884
19	0x3e721b8b	0.2364332
20	0xbe4059e9	-0.18784298
21	0x3e5f625a	0.21814862
22	0xbe8ffd35	-0.2812287
23	0xbe3fffc6	-0.18749914
24	0xbdcd95ad	-0.10038314
25	0xbd8a91b1	-0.0676607
26	0x3de7b4d1	0.11313785
27	0xbe94b525	-0.29044452
28	0xbe5e022c	-0.21680516
29	0x3d99c220	0.075077295
30	0xbeaa6288	-0.33278298
31	0xbdc95ec3	-0.098325275
32	0x3d76bada	0.06023679
33	0xbeb1323e	-0.34608644
34	0xbe023477	-0.12715326
35	0xbe0fbd0a	-0.14036956
36	0x3d7d835f	0.061892863
37	0xbe6a4c33	-0.2288063
38	0x3db179f4	0.08665839
39	0x3c166890	0.009180203
40	0xbc4a6234	-0.012352515
41	0x3d4fa2a8	0.05069223
42	0xbe5b6786	-0.2142621
43	0xbe8e66b4	-0.2781273
44	0x3ee41720	0.44548893
45	0xbeb936f9	-0.36174753
46	0x3c8ff614	0.017573394
47	0xbd706d37	-0.058697905
48	0xbeb2e66d	-0.34941426
49	0xbdbc83ce	-0.09204827
50	0xbe08efdd	-0.1337275
51	0xbe906581	-0.2820244
52	0xbe88f207	-0.26747152
53	0xbe2d7002	-0.16937259
54	0xbd384954	-0.044991806
55	0xbe191f1a	-0.1495327
56	0xbe0d048a	-0.13771263
57	0xbda747b6	-0.08167975
58	0xbe8e267f	-0.27763745
59	0x3c900379	0.01757978
60	0xbdb35a81	-0.087574966
61	0xbe8d0d65	-0.27549282
62	0xbe9e2ddf	-0.30894372
63	0xbe6a31d9	-0.22870578
64	0x3d4076e3	0.04698838
65	0xbce4df71	-0.027938576
66	0x3e8f869a	0.2803238
67	0xbe927ee4	-0.28612435
68	0x3db730c2	0.08944847
69	0xbea2f520	-0.3182764
70	0xbe18f7df	-0.14938305
71	0x3c87c07a	0.016571272
72	0xbc2d0f56	-0.010562738
73	0x3dc343cb	0.09534415
74	0xbe7dbedf	-0.24779843
75	0xbe7a1b9c	-0.24424595
76	0x3e827188	0.25477242
77	0xbd438821	-0.047737245
78	0xbdb5013f	-0.08838128
79	0x3e9701b9	0.29493502
80	0xbe08c40f	-0.1335604
81	0xbcbd7e4b	-0.02313151
82	0x3d776620	0.06040013
83	0xbe80c061	-0.25146773
84	0xbe5ba5b2	-0.21449926
85	0xbde3ba5f	-0.11119532
86	0x3dc9573b	0.09831091
87	0xbea66237	-0.32496807
88	0xbe232e11	-0.15935542
89	0xbdb8fa1d	-0.0903208
90	0xbe1ea57b	-0.15492813
91	0x3c88982d	0.016674126
92	0xbdac4a27	-0.08412581
93	0xbea4b425	-0.3216869
94	0xbce2ba9b	-0.027676871
95	0xbd32a1e3	-0.04361142
96	0x3e0da973	0.13834171
97	0xbd92239c	-0.07135698
98	0xbe94db29	-0.29073456
99	0xbe03eb3a	-0.128827
100	0xbe985092	-0.2974897
101	0x3e4cfdd4	0.20018703
102	0xbe6864af	-0.22694658
103	0xbe8979fe	-0.26850885
104	0x3e582b90	0.21110368
105	0xbd643525	-0.055714745
106	0xbe68efb6	-0.22747692
107	0xbd8dab13	-0.069173954
108	0xbc4e1ab2	-0.012579607
109	0xbd960b53	-0.07326379
110	0x3da605c3	0.08106568
111	0xbe2c4d5a	-0.16826382
112	0x3e190664	0.14943844
113	0xbe1daad7	-0.15397201
114	0xbe7d596d	-0.24741144
115	0x3dd954fa	0.10611911
116	0xbde9effe	-0.11422728
117	0xbe55cd91	-0.20879199
118	0x3e142511	0.14467265
119	0xbd62952d	-0.055318046
120	0xbe29cdbe	-0.1658239
121	0xbd9e94b9	-0.0774321
122	0xbe81aa36	-0.25325173
123	0xbe122dd7	-0.14275299
124	0xbe8a3b66	-0.26998442
125	0xbdac5126	-0.08413915
126	0x3e2ca0ed	0.16858263
127	0xbdf8131c	-0.1211302
128	0xbe32a5cd	-0.1744606
129	0xbd5721e5	-0.05252256
130	0xbe83c754	-0.25738013
131	0x3e2961ff	0.16541289
132	0xbe982fd1	-0.2972398
133	0xbe2bb3f7	-0.1676787
134	0xbd86c963	-0.0658138
135	0xbeccc24e	-0.39991993
136	0xbe4a5b9e	-0.19761512
137	0xbe08cc66	-0.13359222
138	0x3e0c6d22	0.13713506
139	0xbb8f149d	-0.004366471
140	0xbe0d5d7b	-0.13805191
141	0xbdd492c6	-0.10379557
142	0x3ec2d257	0.38051102
143	0x3d8e7b55	0.069571175
144	0xbd4830fc	-0.04887484
145	0xbe466c41	-0.19377233
146	0xbe8f364c	-0.27971113
147	0x3c6239b2	0.013807701
148	0xbeb6a3eb	-0.35671934
149	0x3c823e69	0.0158989
150	0xbe852102	-0.26001745
151	0x3e98e7c1	0.29864314
152	0xbd61f76d	-0.055167604
153	0xbd14a4b2	-0.03628988
154	0xbd8bb141	-0.06820918
155	0x3e60d16e	0.21954891
156	0xbe7e7784	-0.24850279
157	0xbeb7ea0b	-0.35920748
158	0xbe824f65	-0.25451198
159	0xbece333e	-0.4027347
160	0x3e292d87	0.16521274
161	0xbe58eae4	-0.21183354
162	0x3d118fc7	0.035537507
163	0xbe2d2a38	-0.16910636
164	0xbe11f1f7	-0.14252459
165	0xbe599cd3	-0.2125123
166	0xbe6cd44b	-0.23127858
167	0xbde2ac1f	-0.11067986
168	0x3d99e39f	0.075141184
169	0x3dbb3eb6	0.091428205
170	0xbdaec815	-0.08534256
171	0x3d4e187a	0.05031631
172	0x3c94a9ad	0.018147314
173	0xbe8d5a27	-0.27607843
174	0xbe8ecd1a	-0.27890855
175	0xbe5708ea	-0.20999494
176	0xbb1d42c0	-0.0023996085
177	0x3db8a764	0.09016302
178	0xbe833cdf	-0.25632378
179	0xbdbd057c	-0.09229562
180	0x3e32ba11	0.17453791
181	0xbeb0bede	-0.3452062
182	0xbd7bd155	-0.06147893
183	0xbe9c2d3c	-0.3050326
184	0xbd830f9c	-0.063994616
185	0xbe8b7b6d	-0.27242604
186	0x3c2f4728	0.010698117
187	0xbeb371d8	-0.35047793
188	0xbe9a1782	-0.3009606
189	0x3d8f6fee	0.07003771
190	0xbe61c26d	-0.22046824
191	0xbdfd1cc1	-0.12359
192	0xbe0440bf	-0.12915324
193	0xbd764d27	-0.060132172
194	0xbd9e81e2	-0.07739617
195	0xbd8c9117	-0.06863611
196	0x3cb7ca50	0.022435337
197	0xbe2b7be2	-0.16746476
198	0x3c52d0d6	0.012867173
199	0xbe04d5a3	-0.12972121
200	0xbe43a574	-0.19106084
201	0xbde95c42	-0.1139455
202	0xbe22995f	-0.15878819
203	0xbe3b3ba8	-0.18284476
204	0xbe8a4b42	-0.27010542
205	0xbee1b876	-0.44086045
206	0xbe31cfb3	-0.17364387
207	0x3d4d70eb	0.050156515
208	0xbe46e467	-0.19423066
209	0x3e01c833	0.12674026
210	0xbe4f1c70	-0.20225692
211	0xbc847399	-0.016168403
212	0xbdc4b8f1	-0.09605587
213	0xbea8d152	-0.329722
214	0xbe6dc286	-0.23218736
215	0xbeba6422	-0.3640452
216	0x3d74b703	0.059744846
217	0xbe80b100	-0.2513504
218	0x3ea7984c	0.3273338
219	0x3e2abe0a	0.16674057
220	0xbe0887dc	-0.13333076
221	0xbe94fb81	-0.29098132
222	0xbeb0462b	-0.34428534
223	0x3e8e08b7	0.27741024
224	0xbe99cbea	-0.30038387
225	0xbe29954a	-0.16560856
226	0xbefff3a3	-0.49990568
227	0xbd921559	-0.07132978
228	0xbe1f9842	-0.15585425
229	0xbd589765	-0.052878756
230	0xbe894bf3	-0.26815757
231	0x3affa36d	0.0019503661
232	0xbe5a3eef	-0.2131307
233	0xbdafffef	-0.08593737
234	0xbe0f01fe	-0.13965604
235	0xbe98cd3c	-0.2984408
236	0xbe8b63f2	-0.2722469
237	0xbd5421dc	-0.051790103
238	0xbe737ce6	-0.23778114
239	0xbe06edf5	-0.13176711
240	0x3d4d78d4	0.05016406
241	0xbe451bfe	-0.1924896
242	0x3de66e36	0.1125149
243	0xbdd3a028	-0.10333282
244	0x3ce6e837	0.0281869
245	0x3dba4661	0.09095455
246	0xbdd06ec4	-0.10177377
247	0xbea61b8e	-0.32442898
248	0x3bbfd977	0.0058547813
249	0xbe67b08d	-0.22625943
250	0xbe09e6a7	-0.13466893
251	0xbd4dd8a7	-0.050255444
252	0xbe159790	-0.14608598
253	0xbe451799	-0.19247283
254	0xbe815627	-0.25261042
255	0xbdf08052	-0.11743225

l2.weight f4 [400, 400]
0	0xbdd79d98	-0.105281055
1	0x3b84099a	0.004029465
2	0xbdbc5665	-0.09196166
3	0x3d195fa0	0.03744471
4	0x3d3156b3	0.043295573
5	0xbdc7b767	-0.09751778
6	0x3c871e2b	0.016493877
7	0x3d0cfee0	0.034422755
8	0xbd0c0219	-0.034181688
9	0xbd6d24df	-0.05789649
10	0xbcec8dcc	-0.028876208
11	0xbbfee3f7	-0.0077786404
12	0xbe1bf7e1	-0.15231277
13	0xbd5110e4	-0.0510415
14	0x3c2bca32	0.010485219
15	0xbcc81040	-0.024421811
16	0x3b9a8f8f	0.0047168205
17	0xbb02bffd	-0.001995086
18	0xbc9e09f9	-0.019291865
19	0xba0f0ba0	-0.00054567493
20	0x3d7f6383	0.06235076
21	0xbdd8b935	-0.105822004
22	0x3bf2a77e	0.0074052205
23	0x3cdd71a6	0.02703173
24	0x3d3e878e	0.046515994
25	0x3d0b2d0b	0.033978503
26	0x3da93d79	0.08263678
27	0xbda32c47	-0.079674296
28	0xbdc06e0a	-0.09395988
29	0xbdb18157	-0.08667248
30	0x3d900294	0.07031742
31	0xbdaaa190	-0.08331597
32	0x3c567920	0.013090402
33	0xbd23beef	-0.03997701
34	0xbd4a9980	-0.049462795
35	0xbdb0c2a7	-0.08630877
36	0xbdeb050a	-0.114755705
37	0xbdfaa6fe	-0.122388825
38	0xbd601de8	-0.05471602
39	0xbd588a17	-0.052866068
40	0xbdef8399	-0.11695022
41	0x3cada26b	0.021195611
42	0x3d26ddca	0.04073886
43	0x3c313a22	0.010817083
44	0xbd3a38b0	-0.045464218
45	0xbd992465	-0.07477645
46	0x3d7250a1	0.059158925
47	0xbdb6e274	-0.08929911
48	0x3d59e171	0.053193513
49	0x3cb561f2	0.02214143
50	0xbd996dfb	-0.0749168
51	0x3d5c9cbe	0.05386042
52	0x3cb5e1ba	0.022202361
53	0x3c9ed049	0.019386427
54	0x3d2f542d	0.042804886
55	0x3bbc7d9d	0.005752279
56	0x3d88d13f	0.066805355
57	0xbd6c4a93	-0.057688307
58	0xbcedf6e4	-0.02904839
59	0x3d0b1a7a	0.033960797
60	0x3d25e790	0.04050404
61	0x3d3d2ddd	0.046186317
62	0xbd72845b	-0.059208255
63	0xbbdd4415	-0.006752501
64	0x3d316c6c	0.04331629
65	0xbd228ed7	-0.039687004
66	0xbca57b65	-0.02020044
67	0xbd882dd8	-0.06649369
68	0x3cd37eae	0.025817242
69	0x3d83ec4c	0.064415544
70	0xbce0ea9d	-0.027455622
71	0xbcc370c2	-0.023857478
72	0xbddba785	-0.10725311
73	0xbdd2dde9	-0.10296232
74	0xbe05f3b3	-0.13081245
75	0x3d2a24ca	0.04153899
76	0x3caa092b	0.020756325
77	0x3d25ccd1	0.04047853
78	0x3c22f0dc	0.009945121
79	0xbccc718e	-0.02495649
80	0xbd87df1e	-0.06634353
81	0x3c868dbc	0.016425006
82	0xbd0bca7e	-0.03412866
83	0x3d3d87dd	0.046272147
84	0xbd1b3e36	-0.037901126
85	0xbc587383	-0.013211134
86	0xbcc7b81d	-0.024379784
87	0x3cd02e1f	0.025412617
88	0x3b34258a	0.0027488195
89	0x3c1d430f	0.009598508
90	0xbdf82f76	-0.121184275
91	0xbd3aa9fd	-0.04557227
92	0xbd6d5f09	-0.05795196
93	0xbda8b7a9	-0.082381554
94	0xbd6e1ea7	-0.0581347
95	0xbd493c7c	-0.049129948
96	0x3ccfa6cd	0.025348091
97	0xbdcbaac2	-0.09944679
98	0xbd29a74d	-0.041419316
99	0xbd982aed	-0.074300624
100	0x3c9376a1	0.018000903
101	0xbcfe1c3a	-0.031019319
102	0xbd5fba6a	-0.054621138
103	0x3bf2cac2	0.0074094245
104	0xbd397c54	-0.045284584
105	0xbc565cc5	-0.013083641
106	0xbdb9a5d3	-0.090648316
107	0x3d4e7c01	0.050411228
108	0xba5f9137	-0.00085284136
109	0xbdd1fd4a	-0.10253389
110	0xbd5bfdca	-0.05370883
111	0xbdb28904	-0.0871754
112	0xbd05c1bf	-0.032655474
113	0x3c4ce8d1	0.01250668
114	0xbdad4fea	-0.08462508
115	0xbd1c3172	-0.038133092
116	0x3d90d83f	0.07072496
117	0xbd8207f7	-0.063491754
118	0xbd93036f	-0.07178389
119	0xbda1f194	-0.079074055
120	0xbd2b2924	-0.04178728
121	0x3d3cda07	0.046106365
122	0x3c569900	0.0130980015
123	0xbcd1db00	-0.025617123
124	0xbd183e4e	-0.037168793
125	0xbdc286fc	-0.094984025
126	0x3c2fea8f	0.0107370755
127	0x3d11bfad	0.035583187
128	0x3c25cb6b	0.010119299
129	0x3da2e631	0.07954062
130	0xbdc2a769	-0.09504587
131	0xbda740bc	-0.08166644
132	0xbc8d4330	-0.017243952
133	0x3cbdb40b	0.02315714
134	0xbdcd436b	-0.100226246
135	0xbda2850b	-0.07935532
136	0xbe1314e5	-0.1436344
137	0xbdf0f090	-0.11764634
138	0x3bc4c73a	0.006005195
139	0xbd0ceb60	-0.03440416
140	0x3d395d9b	0.045255285
141	0xbbf8c73c	-0.00759211
142	0x3c8fec7c	0.01756882
143	0xbc6ea896	-0.014566561
144	0x3d7e7848	0.062126428
145	0xbd95fb63	-0.07323339
146	0x3d9715d4	0.0737721
147	0x3c4e3fba	0.012588436
148	0x3cdf9ef3	0.027297473
149	0xbc47e09c	-0.012199547
150	0x3c224e55	0.009906371
151	0x3adb61fd	0.0016737577
152	0xbd4e817c	-0.050416455
153	0xbdbe871f	-0.09303116
154	0xbd80e400	-0.062934875
155	0x3cde4889	0.027134197
156	0x3d39f43a	0.04539893
157	0xbdaf5fb2	-0.08563174
158	0xbc2c9070	-0.010532483
159	0xbd8fc83f	-0.07020616
160	0xbca2b03d	-0.019859428
161	0xbd69b85e	-0.057060592
162	0x3d83c44e	0.064339265
163	0xbab24754	-0.001360158
164	0xbd028251	-0.03186256
165	0xbd1e3fd9	-0.03863511
166	0x3b5f6c6d	0.0034091726
167	0x3c8bf3fc	0.017084114
168	0x3c8338f4	0.016018368
169	0x3d286e30	0.041120708
170	0xbd33b99a	-0.043878175
171	0xbd5b2676	-0.053503476
172	0xbdb23416	-0.08701341
173	0xbddf00fb	-0.10888859
174	0x3de2a63e	0.110668644
175	0xbd766bf0	-0.06016153
176	0x3ca57e85	0.02020193
177	0xbd2f42f0	-0.042788446
178	0xbc923503	-0.017847544
179	0xbd12b655	-0.035818417
180	0x3c9f3bdf	0.019437728
181	0xbb123750	-0.00223108
182	0xbc0a87e1	-0.008455248
183	0x3cdae7d4	0.026721872
184	0xbd30fd93	-0.043210577
185	0x3cd56afc	0.02605199
186	0xbda8ce8a	-0.08242519
187	0x3c70e662	0.014703365
188	0xbce66f29	-0.028129177
189	0xbd599770	-0.053122938
190	0xbc7146c0	-0.014726341
191	0x3c72da03	0.014822486
192	0xbe08beb9	-0.13354005
193	0xbd0884ad	-0.033329654
194	0xbc4a83c6	-0.012360519
195	0xbd4c98bc	-0.049950346
196	0x3d147733	0.03624649
197	0x3d1a1358	0.037616104
198	0x3d539e35	0.05166455
199	0xbe1e1699	-0.15438308
200	0xbdd9d987	-0.10637193
201	0x3c5eecd0	0.013606265
202	0xbd8bed36	-0.06832354
203	0x3d641e1c	0.055692777
204	0x3d8d32af	0.06894433
205	0xbdc61c29	-0.0967334
206	0xbda4e5f1	-0.0805167
207	0xbd87f2d4	-0.06638113
208	0xbd8a283a	-0.06745954
209	0xbdd04f2a	-0.10171349
210	0xbda6931b	-0.08133527
211	0x3c713905	0.014723067
212	0xbd942c22	-0.0723498
213	0xbd8ce821	-0.068802126
214	0x3d86b3a1	0.0657723
215	0xbd42e4a1	-0.04758132
216	0x3dd5ba23	0.104358934
217	0xbca44254	-0.020051159
218	0x3c84359e	0.016138848
219	0x3d0c1737	0.034201827
220	0x3d2f3c7e	0.0427823
221	0xbccc3edb	-0.024932316
222	0x3cdeac16	0.027181666
223	0xbdf6eb41	-0.1205659
224	0x3b8db259	0.004324239
225	0xbd3014c9	-0.042988572
226	0xbe16e7fd	-0.14736934
227	0xbded1ed1	-0.115781434
228	0xbdb49ef0	-0.088193774
229	0x39b53b58	0.00034567225
230	0xbdb65c38	-0.08904308
231	0x3aabc56f	0.0013105104
232	0xbd8929c6	-0.06697421
233	0x3be9f7f2	0.007140153
234	0xbccce47b	-0.025011292
235	0xbd8dc6b5	-0.06922666
236	0xbe18cf06	-0.14922723
237	0xbcce1dd3	-0.025160706
238	0x3d805eb7	0.062680654
239	0xbdf39013	-0.11892714
240	0xbd6dfecd	-0.058104325
241	0xbc1d6b01	-0.009608031
242	0xbd758041	-0.059936766
243	0xbd04af81	-0.032393936
244	0x3ded9994	0.11601558
245	0xbdedadae	-0.116053924
246	0xbda68ba3	-0.08132102
247	0x3cd7836e	0.026307788
248	0xbdabd384	-0.08389953
249	0xbcc9949e	-0.024606999
250	0xbd867776	-0.06565754
251	0xbdc6e17f	-0.09710979
252	0x3bb197f0	0.0054197237
253	0xbbd78764	-0.006577419
254	0xbdac5ad8	-0.084157646
255	0xb9916e61	-0.00027738794

l2.bias f4 [400]
0	0xbdbc4ca2	-0.09194304
1	0xbd74c5a4	-0.059758797
2	0xbd32bbbe	-0.043636076
3	0xbd9206de	-0.07130216
4	0x3de6b679	0.11265273
5	0x3c7e9418	0.015538238
6	0x3d87ed92	0.0663711
7	0xbdf6130d	-0.120153524
8	0xbe95b256	-0.29237622
9	0xbe956913	-0.29181728
10	0x3da0ead9	0.07857294
11	0xbdce01c5	-0.10058931
12	0xbf070ad1	-0.5275088
13	0x3e946390	0.2898221
14	0xbd2cf4d9	-0.042225692
15	0x3e570aa5	0.21000154
16	0xbd94c33e	-0.07263802
17	0xbe2b898f	-0.16751693
18	0xbe0a4da2	-0.13506177
19	0xbe2ab04d	-0.16668816
20	0xbe20ada6	-0.15691242
21	0xbd8c34c8	-0.06846005
22	0xbe818dfa	-0.25303632
23	0xbdc06a66	-0.09395294
24	0xbd8cbad8	-0.06871575
25	0xbec0259a	-0.37528688
26	0x3d298745	0.04138877
27	0xbe9acb20	-0.30233097
28	0xbed6e8ee	-0.41974586
29	0x3e9748ac	0.29547632
30	0xbd90425c	-0.07043907
31	0xbdd59135	-0.10428087
32	0xbf054d3a	-0.52070963
33	0xbc3e15dc	-0.011601891
34	0xbdaaa2e4	-0.0833185
35	0xbd44646f	-0.047947343
36	0xbef3b6c2	-0.4760037
37	0xbd80f7a5	-0.062972344
38	0xbd55cec2	-0.052199133
39	0x3e28748a	0.16450706
40	0xbe05248d	-0.13002224
41	0xbe6c4d64	-0.23076397
42	0xbd9f8347	-0.07788711
43	0xbd7dd005	-0.06196596
44	0x3d340384	0.043948665
45	0xbd950328	-0.07275993
46	0xbd92b6ce	-0.071637735
47	0xbd6a8b28	-0.057261616
48	0x3f0d124c	0.55106044
49	0xbe9089c2	-0.282301
50	0xbcf002c3	-0.029298192
51	0xbe90ad26	-0.28257102
52	0xbed850a5	-0.42249027
53	0xbdde990d	-0.10869036
54	0xbdbed935	-0.09318773
55	0xbe681d34	-0.2266739
56	0xbdf43a89	-0.11925227
57	0x3e2fc4b7	0.17164885
58	0xbd96cb9f	-0.073630564
59	0x3da5988a	0.08085735
60	0x3d34cbc5	0.044139642
61	0xbe4bdb00	-0.1990776
62	0xbdbcfe96	-0.09228246
63	0xbcc62ed4	-0.024192251
64	0xbe606040	-0.21911716
65	0xbc942350	-0.018083245
66	0xbdadb76b	-0.0848225
67	0xbda9329b	-0.08261605
68	0xbe1975f6	-0.14986405
69	0x3e4d103c	0.20025724
70	0xbd051a22	-0.032495625
71	0x3c48b49b	0.012250091
72	0x3e8b9e28	0.272691
73	0xbcbf0b90	-0.023320943
74	0xbe0ac76a	-0.13552633
75	0xbe8632fc	-0.26210773
76	0xbda70a08	-0.0815621
77	0x3e213b39	0.15745248
78	0xbeabc8d2	-0.3355165
79	0xbdf6c3d7	-0.12049072
80	0xbe119ba0	-0.14219522
81	0xbe52db66	-0.20591506
82	0xbe143fd9	-0.14477481
83	0x3e07c614	0.13259155
84	0x3d8f8722	0.070081964
85	0xbe2233ea	-0.15840116
86	0xbd5c15ce	-0.053731732
87	0x3da8bda8	0.08239299
88	0xbe0ded76	-0.13860115
89	0x3ea8f0ff	0.32996365
90	0xbdb23b7f	-0.08702754
91	0x3da9821e	0.08276771
92	0x3cd8bd3a	0.026457418
93	0xbd063324	-0.032763615
94	0x3e17124f	0.14753078
95	0xbe09e49b	-0.13466112
96	0xbd6a5828	-0.05721298
97	0xbd4eb328	-0.050463825
98	0xbad459aa	-0.0016201038
99	0xbe457966	-0.19284591
100	0xbea4c9ed	-0.32185307
101	0xbf484060	-0.7822323
102	0xbe8a219c	-0.26978767
103	0x3d914e16	0.07094972
104	0xbebce90c	-0.3689655
105	0xbdb1de80	-0.08685017
106	0xbd351026	-0.044204853
107	0x3ea4cbef	0.3218684
108	0xbe8d62f9	-0.27614573
109	0xbdfd5f9e	-0.12371753
110	0x3dcb5eaf	0.09930169
111	0xbd81b4fb	-0.063333474
112	0x3e1fa108	0.15588772
113	0xbd90ab1d	-0.07063887
114	0x3dc2fdd0	0.09521067
115	0xbe0bf4b1	-0.13667561
116	0xbe50134d	-0.20319863
117	0xbdcb40f3	-0.099244975
118	0x3eaff5db	0.3436726
119	0xbd5f041f	-0.05444729
120	0xbd5cb4d7	-0.0538834
121	0xbcac022e	-0.020997133
122	0x3e18171a	0.14852563
123	0x3dc1e0c1	0.094666965
124	0xbe6f03de	-0.23341319
125	0xbe7fcd15	-0.24980576
126	0xbd281267	-0.041033175
127	0x3e8be489	0.27322796
128	0xbce2d5a2	-0.027689759
129	0xbdab1b23	-0.08354785
130	0xbd82bf53	-0.063841484
131	0xbdaf52f1	-0.08560742
132	0x3ddc0b55	0.10744349
133	0xbd642c93	-0.05570657
134	0xbd90be50	-0.07067549
135	0xbe167300	-0.14692307
136	0xbc0415f9	-0.008061879
137	0x3e295dd2	0.16539696
138	0x3c327228	0.010891475
139	0xbd8b40ad	-0.06799445
140	0xbda5f577	-0.08103459
141	0x3ebbc667	0.36674806
142	0x3d757fcd	0.059936333
143	0xbe1fb864	-0.15597683
144	0xbd553802	-0.052055366
145	0xbea32771	-0.3186603
146	0xbda2eef2	-0.079557315
147	0x3d41994f	0.047265347
148	0x3e186aa5	0.14884432
149	0xbd9256a2	-0.0714543
150	0x3e1884ef	0.1489446
151	0xbe22af28	-0.1588713
152	0xbda26bdd	-0.079307295
153	0xbda186ed	-0.07887063
154	0x3eb9c3dc	0.3628224
155	0xbda45001	-0.08023072
156	0xbda1f492	-0.07907976
157	0xbd62c756	-0.055365883
158	0xbd21c2e7	-0.039492514
159	0x3eff3dcf	0.49851844
160	0xbd44e985	-0.048074264
161	0xbe4de517	-0.20106922
162	0xbda62cc0	-0.08114004
163	0xbda61ba2	-0.08110739
164	0xbd9c126d	-0.07620702
165	0xbde185e3	-0.11011865
166	0xbdb14c63	-0.08657148
167	0xbddf092b	-0.108904205
168	0xbe768b42	-0.2407656
169	0xbda7f017	-0.082000904
170	0xbcc27b94	-0.023740567
171	0x3eb7ed64	0.35923302
172	0xbdf213a1	-0.1182015
173	0xbea42950	-0.3206277
174	0xbe68a920	-0.22720766
175	0x3d92ac0c	0.071617216
176	0xbeb83f3c	-0.35985744
177	0xbe11b571	-0.1422937
178	0xbd8dc59b	-0.06922456
179	0x3ec7fd01	0.39060214
180	0xbe4a670e	-0.19765875
181	0x3d18719f	0.037217733
182	0x3d9439e1	0.07237602
183	0xbe58431a	-0.21119347
184	0x3d1553ac	0.03645675
185	0x3db93db0	0.09044969
186	0xbd8e1f09	-0.06939513
187	0x3e756d78	0.2396754
188	0xbd0796ec	-0.033102915
189	0xbd86b1d3	-0.06576886
190	0xbe84f0ab	-0.25964865
191	0xbd89af13	-0.06722846
192	0xbe628d10	-0.22124124
193	0x3dd9681c	0.106155604
194	0xbda1b132	-0.078951254
195	0xbeb103e3	-0.34573278
196	0xbdbcd1b9	-0.09219689
197	0xbecae254	-0.396258
198	0xbe131b0d	-0.14365788
199	0xbd89d4fd	-0.067300774
200	0xbdc0ed07	-0.094202094
201	0xbe016abe	-0.12638375
202	0xbdbeb278	-0.09311384
203	0xbe07802e	-0.1323249
204	0xbe63d0bb	-0.22247593
205	0xbdfeb04c	-0.1243597
206	0xbd7cf7f2	-0.061759897
207	0x3d87e3a3	0.06635215
208	0x3da69d40	0.08135462
209	0xbe894fe8	-0.26818776
210	0xbea91d7d	-0.3303031
211	0xbe56d010	-0.20977807
212	0x3e3aba75	0.1823519
213	0xbad38ee6	-0.001614061
214	0x3dd17317	0.1022703
215	0x3e15dca9	0.14634956
216	0xbde20989	-0.11036975
217	0xbdaeb324	-0.08530262
218	0xbe7b54e9	-0.2454411
219	0xbbbb0e5d	-0.0057084993
220	0xbe2d89c7	-0.16947089
221	0xbf061896	-0.52381265
222	0x3d802a04	0.06258014
223	0x3a1a4d46	0.00058861484
224	0xbdc82be7	-0.09773999
225	0x3e54dec5	0.20788105
226	0xbd672513	-0.05643184
227	0x3a9f802a	0.0012168933
228	0xbdaf0212	-0.08545317
229	0xbe4c21b6	-0.19934735
230	0xbd834cf4	-0.06411162
231	0xbcfd471d	-0.030917699
232	0xbd845cdf	-0.06463026
233	0x3afb2cc0	0.0019163117
234	0xbd5ba5cc	-0.053624913
235	0x3d8e8639	0.06959195
236	0xbdcf0307	-0.10107999
237	0x3be5e995	0.0070163705
238	0xbd364d99	-0.044507597
239	0xbdcc91a5	-0.09988717
240	0xbdaa7adb	-0.08324214
241	0x3c0732a0	0.008251816
242	0xbd8e5221	-0.069492586
243	0xbd64a2ed	-0.05581944
244	0xbd598312	-0.053103514
245	0xbe3fb6c0	-0.18722057
246	0x3b0c4312	0.0021402282
247	0xbe9513df	-0.29116723
248	0xbe9f6025	-0.3112804
249	0xbdc5a677	-0.09650891
250	0xbd980d04	-0.074243575
251	0xbeeb7550	-0.4598794
252	0xbdabb095	-0.0838329
253	0xbc42122b	-0.011845152
254	0xbdf4fcc6	-0.11962275
255	0xbdb93528	-0.09043342

l3.weight f4 [4, 400]
0	0xbd25f65c	-0.04051815
1	0x3d76641d	0.06015407
2	0x3eef227c	0.46705997
3	0xbaf96d6f	-0.0019029806
4	0x3e2db8dc	0.1696505
5	0x3db8f9b3	0.09032001
6	0x3e98dfa1	0.29858115
7	0xbd9c512a	-0.07632668
8	0xbe2ae9c3	-0.16690736
9	0xbebf7579	-0.37394312
10	0xbe891f68	-0.26781774
11	0xbc716afe	-0.014734982
12	0x3d2a55c8	0.041585714
13	0xbf9c2747	-1.2199486
14	0x3daeebfa	0.08541103
15	0xbe1ce901	-0.15323259
16	0x3cb5803e	0.022155877
17	0xbe1627f6	-0.14663681
18	0xbef5cade	-0.48006338
19	0xbe8632fb	-0.2621077
20	0x3e54edbb	0.20793812
21	0xbd898930	-0.067156196
22	0xbf0d7929	-0.55263
23	0x3cd956f9	0.02653073
24	0x3e02ba73	0.12766437
25	0xbee4c99d	-0.4468507
26	0x3e17abf2	0.14811686
27	0xbd325915	-0.043541986
28	0xbbb20db0	-0.0054337606
29	0xbd194553	-0.03741963
30	0x3d406906	0.04697516
31	0xbf00d074	-0.50318074
32	0x3cb8b301	0.022546293
33	0x3f2af8ab	0.6678569
34	0xbc5c5fe7	-0.013450599
35	0x3d31556c	0.043294355
36	0x3dc2b532	0.095072165
37	0x3cf86782	0.030322794
38	0x3c255583	0.010091188
39	0x3f217055	0.6306203
40	0xbec7485e	-0.389224
41	0xbe5ea1bf	-0.21741389
42	0xbcb1511a	-0.021645118
43	0xbd08d9c3	-0.0334108
44	0x3e264c09	0.16239943
45	0xbda5ec9b	-0.081017695
46	0xbd4ed04f	-0.050491627
47	0xbc9f62bc	-0.01945626
48	0xbe57b28a	-0.21064201
49	0x3e91d757	0.28484604
50	0x3ed243a1	0.41067222
51	0xbe6914e0	-0.2276187
52	0xbf35d6be	-0.71030796
53	0xbbe56174	-0.0070001427
54	0x3e18ee5e	0.1493468
55	0x3eae41d8	0.3403461
56	0x3f09d136	0.53834856
57	0xbe8b28d6	-0.27179593
58	0xbd095f0b	-0.033537906
59	0xbf86c493	-1.052874
60	0xbf07151d	-0.5276659
61	0xbe04c9bf	-0.12967585
62	0xbcc96323	-0.024583405
63	0xbdd7fbe1	-0.10546089
64	0x3db45c02	0.088066116
65	0xbec1c8e7	-0.3784859
66	0x3cc13241	0.023583533
67	0x3dc4efda	0.096160606
68	0xbe49e292	-0.19715336
69	0x3eb05b15	0.3444449
70	0x3dac2a14	0.08406463
71	0x3ee02a5d	0.4378232
72	0x3e2a4457	0.16627632
73	0x3eb65994	0.35615218
74	0x3eb8724b	0.360247
75	0xbde9f761	-0.11424137
76	0x3d1ab36d	0.03776877
77	0xbe0b2197	-0.13587032
78	0x3d64dca5	0.055874486
79	0xbd9f7221	-0.0778544
80	0xbea9d1b8	-0.33167815
81	0x3ed791f5	0.42103544
82	0x3da0323a	0.0782208
83	0xbde01ad4	-0.10942617
84	0x3dd2368e	0.10264312
85	0x3bc59ca5	0.0060306364
86	0x3d889340	0.06668711
87	0xbeaa8052	-0.33301026
88	0x3dd0b90e	0.101915464
89	0xbf1e37e3	-0.61804026
90	0x3f17ffaa	0.5937449
91	0x3f123ce9	0.5712419
92	0x3e12e7d4	0.14346248
93	0x3dfa7bbb	0.12230631
94	0xbe3eacb2	-0.18620566
95	0xbd687770	-0.05675453
96	0xbd4a4db4	-0.04939051
97	0xbe66605b	-0.22497694
98	0x3e2b5845	0.16732891
99	0x3e883dde	0.266097
100	0xbc70d7f9	-0.014699929
101	0xbf00ad24	-0.5026419
102	0xbedd59f1	-0.43232682
103	0x3f493971	0.78603274
104	0xbea2496c	-0.3169664
105	0xba9a6654	-0.0011779764
106	0xbde578a5	-0.11204652
107	0xbe816444	-0.2527181
108	0x3e672590	0.22572923
109	0x3eccc727	0.3999569
110	0xbdefb86f	-0.117051
111	0xbdd82d78	-0.105555475
112	0x3ef9c753	0.48784885
113	0x3ce88688	0.028384462
114	0x3df66076	0.12030117
115	0xbeb2e25c	-0.34938323
116	0xbcd385af	-0.025820581
117	0xbbab65dc	-0.0052306484
118	0x3e33859e	0.1753144
119	0xbb4419fb	-0.0029922712
120	0x3d18f0b7	0.03733894
121	0x3de518f5	0.11186401
122	0x3f129156	0.57253015
123	0xbf13e4aa	-0.5777079
124	0xbf0669ec	-0.52505374
125	0x3d9fb33f	0.0779786
126	0x3f391251	0.72293574
127	0x3e609fe2	0.2193599
128	0x3eac73e5	0.3368217
129	0x3d1f72c9	0.038927827
130	0xbdefc238	-0.11706966
131	0xbf6845f8	-0.90731764
132	0x3ebeeeea	0.37291652
133	0x3dd44024	0.10363796
134	0xbba06040	-0.0048942864
135	0xbddeba37	-0.108753614
136	0x3dcaa516	0.09894769
137	0xbe343ee5	-0.17602117
138	0x3ed222db	0.41042218
139	0x3cb2beea	0.02181955
140	0xbcf3f7cc	-0.029781245
141	0xbf07d104	-0.5305331
142	0x3d988dcb	0.0744892
143	0x3d357321	0.04429925
144	0xbe8639c5	-0.2621595
145	0x3ee474c5	0.44620338
146	0xbcd977ff	-0.026546476
147	0x3ddf5f09	0.109067984
148	0xbe69bb94	-0.22825462
149	0xbc4ba7b3	-0.012430119
150	0x3ec614a1	0.38687614
151	0x3e181058	0.14849985
152	0xbb5c2018	-0.0033588465
153	0x3d8dfba9	0.06932766
154	0x3f23b2f6	0.6394495
155	0xbda3a6c5	-0.07990793
156	0xbe2762e2	-0.16346315
157	0xbe86e3c7	-0.26345655
158	0x3e9d2e0a	0.30699188
159	0x3f199dfc	0.6000669
160	0xbbd603d0	-0.006531216
161	0x3da77ede	0.08178495
162	0xbaa9ae72	-0.0012945666
163	0x3cf6e0e8	0.03013654
164	0xbbc415c3	-0.0059840395
165	0xbc524d56	-0.012835821
166	0xbc18f465	-0.009335612
167	0xbd41f16b	-0.047349375
168	0xbebfef6b	-0.3748735
169	0x3d59fcdb	0.053219657
170	0x3bd77251	0.006574907
171	0x3efac64a	0.48979408
172	0x3db9561f	0.090496294
173	0x3ddc9b7d	0.107718445
174	0x3d82e886	0.063920066
175	0xbf73ceea	-0.952376
176	0x3d9205b1	0.07129992
177	0xbd58d4e7	-0.052937414
178	0x3da95719	0.08268566
179	0x3e924722	0.28569895
180	0xbe5ea64a	-0.21743122
181	0x3d46abed	0.048503805
182	0x3ea28931	0.31745294
183	0xbea4ad28	-0.32163358
184	0xbcd17025	-0.02556617
185	0xbf485630	-0.7825651
186	0x3cc462ad	0.023972834
187	0xbed34bb5	-0.41268697
188	0x3d776d59	0.060407016
189	0xbf7c07e5	-0.98449546
190	0x3e821ea9	0.25414017
191	0x3d1eaf8c	0.038741633
192	0x3e11a6d3	0.14223795
193	0x3f6cff44	0.92577004
194	0x3ca222dc	0.019792013
195	0x3d8de357	0.06928127
196	0xbdbaf3c0	-0.09128523
197	0x3e9a6b90	0.3016019
198	0x3cca2a09	0.024678247
199	0x3e940df2	0.2891689
200	0xbde41dc2	-0.11138488
201	0xbe43795c	-0.19089264
202	0x3dc53e57	0.09631031
203	0x3d83e4f3	0.06440153
204	0xbdd5a823	-0.1043246
205	0xbd00ecf0	-0.03147596
206	0x3d299533	0.041402053
207	0x3dde010a	0.10840042
208	0xbeffcb49	-0.49959782
209	0x3d761597	0.060079183
210	0x3f069164	0.525656
211	0x3e50b22c	0.20380467
212	0x3e55933b	0.20856945
213	0x3e9903b0	0.29885626
214	0x3eb9d470	0.3629489
215	0x3f38fb1d	0.7225817
216	0xbd69f579	-0.057118867
217	0x3d512c0f	0.05106741
218	0xbe3349df	-0.17508648
219	0x3e7085eb	0.23488586
220	0xbdf3cf29	-0.11904747
221	0xbda7f5a0	-0.08201146
222	0xbed068e5	-0.40705028
223	0xbea25036	-0.3170182
224	0xbbdbcbb6	-0.006707634
225	0xbe7c6813	-0.24649076
226	0xbd2a797d	-0.041619767
227	0x3d986c04	0.07442477
228	0x3d3f4856	0.046699844
229	0xbed3390f	-0.4125447
230	0x3b8de08a	0.0043297457
231	0xbd63b201	-0.05558968
232	0x3e49cea7	0.19707738
233	0xbf09ed73	-0.53877944
234	0xbf8fd044	-1.1235433
235	0x3ef1a793	0.4719816
236	0x3d2f0cad	0.042736698
237	0xbd8335ee	-0.06406771
238	0x3eefee69	0.4686158
239	0x3c620916	0.013796112
240	0xbe2f9d4f	-0.17149852
241	0x3e6c7f3b	0.2309541
242	0x3de578b1	0.11204661
243	0x3cdbb2fd	0.026818747
244	0x3df73b48	0.12071854
245	0x3db7aae1	0.089681394
246	0x3ed4cec1	0.4156399
247	0xbe7265fd	-0.23671718
248	0xbc9a9da1	-0.018873991
249	0xbdb19c46	-0.08672385
250	0x3b2a53e8	0.0025989953
251	0x3ef293e6	0.47378463
252	0xbf1179a5	-0.5682624
253	0x3e155def	0.14586614
254	0x3ed640d5	0.41846338
255	0x3cbc3171	0.022972794

l3.bias f4 [4]
0	0x3ebf75fb	0.373947
1	0x3e845659	0.25847128
2	0x3db81589	0.089884825
3	0x3f06525d	0.52469426
