runs/pendulum1.pt (torch, 7264 bytes, 3 tensors)

layer1.weight f4 [256, 3]
-1.0243187 0.6486466 0.14451051 0.50795174 0.30135375 0.19998501 -0.2666807 -0.273725
-0.5581977 -0.16531974 0.396672 -0.4011195 -0.33516952 -0.22181231 0.080328494 0.46348384
0.43528926 0.43424818 -0.7955763 0.16188978 0.017968498 0.70040566 -0.07418209 -0.20560078
0.27342054 -0.061560065 -0.29853123 0.7570384 -1.107535 -0.057110213 0.3988832 0.22952224
-0.27305958 -0.63072133 0.006385855 0.34853354 0.20530428 -0.43146944 0.35012555 0.30943945
0.855657 0.4611473 0.15646327 -0.7880981 0.11675527 -0.36116165 -0.011272915 0.26455
0.86170346 -0.4278121 -0.25074816 -0.28604653 -0.2095828 -0.05953382 -0.8891042 0.3040205
0.29285747 0.03494168 -0.2962878 -0.5128116 0.59948283 -0.15584548 -0.48930648 -0.01708429
-0.13134888 -0.46124503 0.23776323 0.27228525 0.018310033 0.5946606 -0.35729304 0.0682072
-0.1307503 0.02653165 -0.10362709 0.65570635 -0.38359955 -0.059663463 -0.14818478 0.6619745
-0.25883907 0.6326173 0.21239194 -0.20133866 0.4459251 -0.20074657 0.02931895 -0.6609624
0.70312136 -0.11071386 0.088376574 0.91260326 -0.2855584 -0.19332509 -0.76398057 0.49235964
-0.46752894 0.09612196 -0.44822866 -0.048871208 -0.81620294 -0.23082949 0.60216177 0.39880398
0.302892 -1.4476483 0.45591658 0.48084897 0.70628625 0.03756455 -0.034211405 0.3467869
0.34265733 0.055459864 -0.02019258 0.2957528 -0.24438515 -0.5899364 -0.037168633 0.39151597
0.008598602 -0.31453142 -0.5344763 0.16829361 -0.090936154 0.22085123 -0.41532207 0.046413362
-0.27737513 0.2361308 0.9943506 0.3651416 -0.32692805 0.13357401 -0.4733991 0.8070801
0.43510422 -0.27637672 0.16068375 -0.23506942 0.27012843 -0.06350914 1.2747736 0.19497111
0.32174125 0.790654 0.28839195 0.38488796 0.59220845 -0.031298175 -0.08589771 0.18679594
0.030957041 0.7642646 -0.30263138 -0.34336546 -0.31321827 -1.0284356 0.11279059 0.39201272
-0.1505384 0.008085923 -0.26524287 -0.89556515 0.055425603 0.17878194 0.073101655 -0.30604297
-0.7713805 -0.102153935 -0.012175146 -0.07009193 -0.67394304 0.004870644 0.24142492 0.8381989
-0.07373924 -0.3003842 0.17606041 0.34373134 -0.6089942 -0.031407405 0.33301148 0.35628098
-0.2056779 0.32810256 -0.31041232 0.13491079 -0.04127201 0.5394038 0.32370082 0.080376185
-0.44664434 -0.30617493 -0.1409868 -0.5659005 -0.2095181 0.4082549 -0.1318099 0.09856866
-0.043363675 -0.22713313 -1.0655335 -0.25448018 0.4815838 -0.93253064 0.3435572 0.002428042
-0.36552843 0.5296199 0.093051895 1.1537582 -0.040065046 -0.48139057 -0.033871546 0.321406
0.28950024 -0.15845318 0.30019268 0.74102 -1.1657221 -0.23649758 -0.35515934 -0.039774302
-0.3892591 0.22499703 0.55304325 -0.24079442 0.5330869 -1.0222702 -0.18790725 -0.38341358
-0.85352147 -0.3956384 -0.032179594 0.035478197 -0.40378976 -0.16440833 1.4581167 0.21898687
1.007956 -0.45987874 -0.31931227 0.2029746 0.22125192 -0.38009086 0.067351975 0.036068548
0.21064436 0.1650145 0.6244515 -0.40856263 0.52418464 0.479604 0.13859989 0.5178234
00000000: e01c 83bf b40d 263f 90fa 133e 2009 023f
00000010: 0a4b 9a3e dfc8 4c3e 5f8a 88be af25 8cbe
00000020: 0be6 0ebf 9449 29be 9818 cb3e 895f cdbe
00000030: 579b abbe c422 63be 4483 a43d c14d ed3e
00000040: 3cde de3e c755 de3e e3aa 4bbf 6fc6 253e
00000050: ac32 933c c94d 333f c8ec 97bd 0389 52be
00000060: c7fd 8b3e 6826 7cbd 16d9 98be 45cd 413f
00000070: b5c3 8dbf 66ec 69bd 6b3a cc3e e107 6b3e
00000080: 77ce 8bbe f476 21bf 6f40 d13b fd72 b23e
00000090: 493b 523e 90e9 dcbe a843 b33e d96e 9e3e
000000a0: 560c 5b3f 801b ec3e e837 203e ccc0 49bf
000000b0: 631d ef3d 2eea b8be 08b2 38bc 1973 873e
000000c0: 9998 5c3f 300a dbbe 1062 80be b174 92be
000000d0: e09c 56be bcd9 73bd 559c 63bf 93a8 9b3e
000000e0: 6af1 953e 021f 0f3d 09b3 97be 9f47 03bf
000000f0: b577 193f f595 1fbe 6186 fabe 5af4 8bbc
00000100: 5280 06be 4f28 ecbe 3478 733e f968 8b3e
00000110: ecfe 953c ad3b 183f 1def b6be 37b0 8b3d
00000120: 68e3 05be e758 d93c 713a d4bd 5fdc 273f
00000130: 2967 c4be ad61 74bd c0bd 17be 2977 293f
00000140: 8e86 84be 35f3 213f 467d 593e b92b 4ebe
00000150: 4b50 e43e 8290 4dbe 4b2e f03c d534 29bf
00000160: c3ff 333f f3bd e2bd c7fe b43d 5ea0 693f
00000170: b634 92be 03f7 45be 3b94 43bf 9016 fc3e
00000180: f45f efbe 97db c43d 3a7e e5be 2d2d 48bd
00000190: adf2 50bf 915e 6cbe 4627 1a3f 0930 cc3e
000001a0: a914 9b3e 8a4c b9bf e66d e93e d631 f63e
000001b0: 2dcf 343f 49dd 193d 4221 0cbd 0d8e b13e
000001c0: c870 af3e e229 633d e96a a5bc e96c 973e
000001d0: 1a40 7abe 1206 17bf 233e 18bd c874 c83e
000001e0: 27e1 0c3c 430a a1be 70d3 08bf 2955 2c3e
000001f0: bc3c babd d326 623e 18a5 d4be f01b 3e3d
00000200: 1d04 8ebe 46cc 713e c38d 7e3f d7f3 ba3e
00000210: 1d63 a7be a0c7 083e 5e61 f2be cd9c 4e3f
00000220: fbc5 de3e 4081 8dbe 488a 243e 0ab6 70be
00000230: 464e 8a3e 1411 82bd c82b a33f 82a6 473e
00000240: 45bb a43e 4d68 4a3f 1ca8 933e 0910 c53e
00000250: f99a 173f 8432 00bd 23eb afbd 6f47 3f3e
00000260: 9f99 fd3c d8a6 433f 80f2 9abe 99cd afbe
00000270: 255e a0be c7a3 83bf c1fe e63d e4b5 c83e
00000280: bd26 1abe d27a 043c eacd 87be c243 65bf
00000290: f505 633d 9d12 373e 52b6 953d aab1 9cbe
000002a0: 3179 45bf 1536 d1bd 437a 47bc 5c8c 8fbd
000002b0: 8887 2cbf ec99 9f3b 1838 773e 3494 563f
000002c0: 9904 97bd f5cb 99be 2e49 343e 8efd af3e
000002d0: 0be7 1bbf 0da5 00bd 7b80 aa3e 766a b63e
000002e0: 3a9d 52be 0ffd a73e 5dee 9ebe 0e26 0a3e
000002f0: d70c 29bd 5e16 0a3f 1dbc a53e 459c a43d
00000300: 91ae e4be f6c2 9cbe d85e 10be dbde 10bf
00000310: ea8b 56be c906 d13e 2df9 06be 5ede c93d
00000320: 1c9e 31bd 9695 68be 6763 88bf 3a4b 82be
00000330: 2792 f63e 54ba 6ebf bbe6 af3e c91f 1f3b
00000340: 8b26 bbbe 2b95 073f fe91 be3d 59ae 933f
00000350: 3f1b 24bd d378 f6be e4bc 0abd 548f a43e
00000360: 6039 943e 8d41 22be dbb2 993e 7db3 3d3f
00000370: 6236 95bf 6c2c 72be 72d7 b5be 61ea 22bd
00000380: f84c c7be 9f65 663e 3e94 0d3f d092 76be
00000390: 6278 083f c0d9 82bf c26a 40be c94e c4be
000003a0: 6280 5abf 1e91 cabe c0ce 03bd 9651 113d
000003b0: 88bd cebe a85a 28be 91a3 ba3f 183e 603e
000003c0: b404 813f 3a75 ebbe e67c a3be 93d8 4f3e
000003d0: dd8f 623e 459b c2be d5ef 893d 9dbc 133d
000003e0: 28b3 573e 90f9 283e 0edc 1f3f 1f2f d1be
000003f0: f730 063f a88e f53e 21ed 0d3e 1390 043f

layer1.bias f4 [256]
0.048731443 0.48848292 0.1271186 0.16409451 0.386151 -0.14227755 -0.94873166 0.16256443
-0.19889337 -0.47391468 0.511459 0.41013038 -0.23274021 -0.60814035 0.26878256 0.29932964
0.06795036 0.047431204 0.086733215 -0.02387941 -0.3369683 0.010067879 -0.66371685 -0.7243381
-0.24698976 -0.9415786 0.29484162 0.46497393 -0.20702414 -0.4343079 0.5374532 0.09137411
-0.11111199 0.1666456 0.3933459 -0.04547949 -0.23437569 -0.027780922 -0.5751426 0.44027337
0.03225156 -0.26727334 -0.120035924 -0.40709528 -0.06692541 0.41845483 0.22575974 -1.0087948
-0.16127549 -0.05623461 0.32413098 -0.16972415 0.39388934 0.48969522 0.11388025 0.37898734
-0.5848901 -0.7164399 -0.017124789 0.37449247 0.4072705 -0.14206441 0.35195893 -0.16327393
0.23062421 -0.600153 -0.6580122 -0.5303915 -0.003838727 -0.40906772 -0.056075618 0.41700366
-0.20449351 -0.93494844 0.030968608 -0.8114884 -0.84808534 0.50853294 -0.18735893 -0.93373144
0.023714647 0.32590196 0.59736204 0.018781928 -0.34717423 0.3734804 -0.30623606 -0.014029328
0.5388703 0.026288409 0.008897729 0.5604118 -0.82519764 -0.12863576 0.16743992 -0.07293896
-0.34999952 -0.75679076 0.35515133 0.22810961 -0.78020555 -0.38190386 -0.26702765 -0.84051293
0.3648418 0.3400921 0.042172953 -0.67376363 -0.2483273 -0.4924051 -0.24290435 0.59583986
0.11892782 0.09824288 -0.23511337 0.13579571 0.030784769 -0.5238115 0.09138995 -0.080171525
0.1801763 -0.30481702 -0.08063128 0.51942605 -0.13631827 -0.105074346 0.22217406 0.49852008
0.1752369 -0.30181363 -1.0602735 -0.4474444 -0.22496735 0.21907228 0.1182328 -0.24072546
-0.8365616 0.07774121 0.26483652 -0.4017945 0.14703862 -0.16492707 0.32905254 0.005882894
-0.09815259 0.21016024 0.15327139 -0.62076414 0.26737627 0.28653082 0.01329682 0.0018525318
0.32052428 0.1471346 -0.20443822 -0.0974756 -0.05388289 0.46814832 -0.006809918 0.27181235
0.36480182 -0.9366999 0.49496424 0.12119933 -0.5078005 -0.4313869 -0.028103508 0.21927387
-0.5552243 0.3233503 -0.70570385 -0.516353 0.30660096 -0.29535732 -0.13359596 -0.3929301
0.76653904 -0.9054479 0.3902767 0.55699605 -0.2603305 -0.020793851 -0.826866 -0.7109018
-0.36084336 0.027521813 -0.6378323 -0.44460475 0.3987003 -0.15247214 -0.22052498 -0.35053277
-0.0991897 0.45669228 -0.063539505 -0.10408065 -1.0234599 0.3178137 -0.1505473 -0.27938977
-0.09742893 -0.6796296 -1.0431513 0.11195595 0.13159612 0.024766115 0.47378924 -0.561578
0.12011578 0.4923989 0.474864 0.32169387 -0.47943768 0.004222821 -0.30570084 0.24013641
0.6162318 -0.51658463 -0.5894894 -0.6260646 0.55886054 -0.17171384 0.47658962 0.17556177
-0.612033 -0.27005577 0.62873906 -0.24167137 -0.8422716 0.20672108 0.5308411 -0.55756825
-0.3575548 -0.1169396 0.40880278 -0.435341 0.4727703 0.2686676 -0.17275725 0.060082417
-0.778208 -0.2120635 0.5967626 0.22478898 0.49994612 0.2569925 0.008986733 0.28526866
-0.5008684 -0.44188762 -0.014050864 0.190068 0.14155512 0.52527845 0.43285683 0.57418114
00000000: 9f9a 473d 6f1a fa3e 612b 023e 6408 283e
00000010: 95b5 c53e 35b1 11be 14e0 72bf 4a77 263e
00000020: b4aa 4bbe f2a4 f2be faee 023f 9cfc d13e
00000030: 7353 6ebe 16af 1bbf de9d 893e bc41 993e
00000040: 8f29 8b3d 3947 423d 2fa1 b13d c19e c3bc
00000050: 1c87 acbe bff3 243c 59e9 29bf 396e 39bf
00000060: e2ea 7cbe 4c0b 71bf 7bf5 963e 1011 ee3e
00000070: 23fe 53be 9b5d debe 8896 093f 5922 bb3d
00000080: af8e e3bd 25a5 2a3e a264 c93e b448 3abd
00000090: 2e00 70be d194 e3bc 8c3c 13bf 836b e13e
000000a0: 361a 043d 0dd8 88be 65d5 f5bd cb6e d0be
000000b0: 3010 89bd b63f d63e 902d 673e 3020 81bf
000000c0: 6725 25be 4356 66bd 7ff4 a53e 2bcc 2dbe
000000d0: ddab c93e 55b9 fa3e 0c3a e93d a10a c23e
000000e0: 5cbb 15bf 9b68 37bf 4949 8cbc 7abd bf3e
000000f0: c285 d03e 5579 11be f633 b43e 4831 27be
00000100: c128 6c3e a1a3 19bf 7d73 28bf bdc7 07bf
00000110: 2793 7bbb 5371 d1be 8caf 65bd 8181 d53e
00000120: bf66 51be c858 6fbf e1b1 fd3c b4bd 4fbf
00000130: 1f1c 59bf 372f 023f 05db 3fbe 0609 6fbf
00000140: 3845 c23c 9fdc a63e b8ec 183f 8fdc 993c
00000150: d2c0 b1be d338 bf3e f9ca 9cbe 44db 65bc
00000160: 67f3 093f ca5a d73c c8c7 113c 2677 0f3f
00000170: 2740 53bf 18b9 03be 5f75 2b3e 0561 95bd
00000180: 2333 b3be 0abd 41bf 65d6 b53e 9195 693e
00000190: 8dbb 47bf e788 c3be d9b7 88be db2b 57bf
000001a0: 8bcc ba3e 8d20 ae3e 8cbd 2c3d c67b 2cbf
000001b0: 8349 7ebe 851c fcbe ebbb 78be f688 183f
000001c0: 6e90 f33d 9033 c93d 8fc1 70be 080e 0b3e
000001d0: 5730 fc3c 8318 06bf a72a bb3d f830 a4bd
000001e0: 2380 383e fa10 9cbe 0322 a5bd 1bf9 043f
000001f0: 0497 0bbe 3831 d7bd 9981 633e 063e ff3e
00000200: 4d71 333e 5187 9abe 0bb7 87bf 6f17 e5be
00000210: d75d 66be 7c54 603e 0a24 f23d bc80 76be
00000220: e728 56bf c936 9f3d a798 873e 02b8 cdbe
00000230: 4b91 163e a4e2 28be 9379 a83e 4bc5 c03b
00000240: 3a04 c9bd 3f34 573e 2df3 1c3e 66ea 1ebf
00000250: 8be5 883e 2bb4 923e e8da 593c a7d0 f23a
00000260: c21b a43e 74aa 163e 4158 51be 4aa1 c7bd
00000270: 4eb4 5cbd 23b1 ef3e bc25 dfbb fd2a 8b3e
00000280: 4ec7 ba3e 91cb 6fbf f46b fd3e 5b37 f83d
00000290: 37ff 01bf bede dcbe 5439 e6bc 5489 603e
000002a0: 2e23 0ebf 2c8e a53e 02a9 34bf b62f 04bf
000002b0: cdfa 9c3e 1339 97be 61cd 08be 222e c9be
000002c0: e73b 443f 6fcb 67bf 59d2 c73e 4b97 0e3f
000002d0: 0a4a 85be de57 aabc 7dad 53bf a9fd 35bf
000002e0: 76c0 b8be 6d75 e13c fa48 23bf 3ca3 e3be
000002f0: 7222 cc3e a821 1cbe 4dd1 61be 0879 b3be
00000300: f823 cbbd 92d3 e93e 0021 82bd 3c28 d5bd
00000310: bc00 83bf 7ab8 a23e 1229 1abe 2d0c 8fbe
00000320: d288 c7bd 35fc 2dbf fb85 85bf 2949 e53d
00000330: 22c1 063e 4fe2 ca3c 8194 f23e 93c3 0fbf
00000340: 43ff f53d b51b fc3e 6021 f33e 0fb5 a43e
00000350: db78 f5be 975f 8a3b d284 9cbe 52e6 753e
00000360: 5ec1 1d3f e43e 04bf c7e8 16bf c545 20bf
00000370: 7c11 0f3f c1d5 2fbe 8e03 f43e 77c6 333e
00000380: 32ae 1cbf c044 8abe 0bf5 203f b378 77be
00000390: 1d9f 57bf b1ae 533e 34e5 073f cbbc 0ebf
000003a0: 6c11 b7be 077e efbd 994e d13e 04e5 debe
000003b0: f30e f23e cd8e 893e 47e7 30be fb18 763d
000003c0: a438 47bf 2d27 59be 6fc5 183f 152f 663e
000003d0: f0f8 ff3e 8594 833e 173d 133c bc0e 923e
000003e0: e938 00bf 183f e2be 9835 66bc 30a1 423e
000003f0: d3f3 103e a678 063f 699f dd3e 89fd 123f

layer3.weight f4 [1, 256]
0.19314572 -0.14690621 0.052742537 -0.033434823 0.059444122 -0.015535325 0.49459204 0.05504557
0.025801491 0.21481012 0.027577749 0.065269046 -0.049311753 -0.09938382 -0.2612224 0.05691163
0.21590874 0.012575277 0.18429218 0.04079854 0.0974323 0.040296037 0.06890117 0.26287234
-0.006654849 -0.26661885 -0.14761119 0.08551359 0.28574198 -0.43840224 -0.14458127 -0.0740236
0.011342107 -0.14259294 -0.046847668 0.19452563 0.11540204 0.17438354 0.104027994 0.06614238
0.06056604 -0.07736253 0.058693547 -0.20658836 -0.011359875 0.006086303 0.000693473 0.86014646
-0.11108905 -0.12856732 0.010702595 0.1766957 0.025257055 -0.050642993 -0.2724217 -0.04501391
0.22371075 0.5853366 0.005309094 0.030248083 0.061578978 -0.05980611 0.020501869 0.24324274
0.086786024 0.06907788 -0.011475847 -0.4853642 -0.4003639 -0.09692794 0.2527304 0.047973376
-0.06099117 0.93206257 -0.010420242 0.31743523 0.6615191 -0.09373159 -0.0046562464 0.38618407
0.21780789 -0.078335136 -0.026860448 -0.08795589 0.2920158 0.06978617 -0.06751814 -0.07754962
0.0925316 0.03147243 -0.2010608 0.040667403 0.5009191 0.19475581 0.21019971 -0.20233613
0.37920764 0.7941194 -0.35550606 0.1369396 1.0889695 -0.29877183 0.111784555 1.8782871
-0.124687776 -0.014903993 -0.053510875 0.7801051 -0.22616242 0.020529006 -0.11638251 0.08494917
-0.24957174 -0.0605328 0.0031289612 -0.01759962 0.14108813 -0.058355965 -0.29662067 -0.18059163
0.065094575 0.0483739 -0.020247245 -0.10886605 0.025462192 -0.3946904 0.0574548 -0.04547953
0.05964362 0.06555805 0.5813173 0.11310804 0.15539598 -0.09658511 0.20252426 0.3355866
0.13618767 -0.038376402 0.2120963 0.03722518 -0.030454956 0.07957373 -0.032677915 0.13350932
-0.0371302 0.1437464 0.041289568 0.14893258 -0.025628773 -0.040165864 0.016801193 0.5856197
0.009417472 0.09028652 0.0014724394 0.016616978 0.50338113 0.014145967 -0.092350714 -0.08520111
0.03859679 0.5888598 -0.109880045 -0.021173704 -0.36497867 -0.1573058 -0.28131217 -0.11531732
-0.14001647 -0.13218549 0.63923424 0.46337947 -0.25130534 0.29237455 0.029495193 0.22108336
-0.03881295 1.3383486 -0.021055441 0.061748736 0.06794271 0.043914795 1.3434026 0.87951845
0.020866567 0.37815106 -0.31204328 0.4331806 0.04858668 0.12204889 0.12730668 0.13308538
-0.0601313 0.003705931 0.16711098 -0.018338718 0.96341044 0.01800555 -0.18725361 -0.08335405
-0.1017401 0.61251783 -0.16690075 0.06528879 0.025237923 0.015746843 -0.12796511 0.11331589
-0.06224205 -0.032995407 0.038570542 -0.036030516 0.24956925 0.042696133 -0.06849682 0.0024708651
0.14668953 -0.0046733734 0.23415254 0.27195045 0.022511153 -0.07024913 -0.29976127 -0.0707461
-0.04142725 0.06936389 -0.06361853 0.013365304 -0.15921213 0.08393248 -0.026145946 0.23535798
0.15142618 -0.06352476 -0.061804272 0.28069153 -0.20778058 0.13680924 0.16052027 0.1866187
1.563784 0.010034796 -0.1325637 -0.08034393 0.02837996 -0.12440939 0.01721145 0.035002563
-0.07500947 0.32142997 0.009365693 0.051326036 0.16199347 -0.14216651 -0.03233679 0.05543884
00000000: fec7 453e 956e 16be 8f08 583d f4f2 08bd
00000010: ae7b 733d e087 7ebc 2b3b fd3e 7777 613d
00000020: a65d d33c 2ff7 5b3e bbea e13c c7ab 853d
00000030: 1ffb 49bd bf89 cbbd f1be 85be 2b1c 693d
00000040: 2e17 5d3e 8908 4e3c 17b7 3c3e 5f1c 273d
00000050: 968a c73d 750d 253d 0e1c 8d3d 3497 863e
00000060: eb10 dabb 4482 88be 6327 17be c021 af3d
00000070: c64c 923e 4276 e0be 1d0d 14be af99 97bd
00000080: 3fd4 393c e203 12be 57e3 3fbd ba31 473e
00000090: e857 ec3d 9991 323e a10c d53d a875 873d
000000a0: 1914 783d 3f70 9ebd a568 703d e68b 53be
000000b0: c51e 3abc 9c6f c73b 2fca 353a 8f32 5c3f
000000c0: a882 e3bd 27a7 03be f059 2f3c b8ef 343e
000000d0: e2e7 ce3c 076f 4fbd db7a 8bbe 8160 38bd
000000e0: 6e14 653e 9fd8 153f e9f7 ad3b d4ca f73c
000000f0: 3d3a 7c3d 40f7 74bd 89f3 a73c a014 793e
00000100: dfbc b13d b478 8d3d 3105 3cbc a881 f8be
00000110: 7ffc ccbe 2882 c6bd e165 813e bb7f 443d
00000120: e1d1 79bd a79b 6e3f aab9 2abc df86 a23e
00000130: 5159 293f 59f6 bfbd 6d93 98bb ebb9 c53e
00000140: 0809 5f3e 2c6e a0bd 710a dcbc 3822 b4bd
00000150: 1883 953e 0dec 8e3d f346 8abd 56d2 9ebd
00000160: 3581 bd3d 3ce9 003d e2e2 4dbe dd92 263d
00000170: 3c3c 003f 116e 473e 983e 573e 3431 4fbe
00000180: 8127 c23e 694b 4b3f e404 b6be e539 0c3e
00000190: 5a63 8b3f 9ff8 98be 4def e43d b66b f03f
000001a0: 4e5c ffbd e12f 74bc 382e 5bbd f8b4 473f
000001b0: 1f97 67be 722c a83c f459 eebd d5f9 ad3d
000001c0: bc8f 7fbe 3ef1 77bd 420f 4d3b 142d 90bc
000001d0: 6879 103e aa06 6fbd aade 97be 03ed 38be
000001e0: 4e50 853d b623 463d 8ddd a5bc 2af5 debd
000001f0: 1696 d03c dc14 cabe b955 6b3d be48 3abd
00000200: de4c 743d 4d43 863d 36d1 143f 30a5 e73d
00000210: 2020 1f3e 6ace c5bd 8562 4f3e 02d2 ab3e
00000220: c874 0b3e 9330 1dbd c62f 593e 6e79 183d
00000230: ac7c f9bc 8df7 a23d 47d9 05bd abb6 083e
00000240: d615 18bd 4232 133e 401f 293d c881 183e
00000250: 6ff3 d1bc f684 24bd a8a2 893c 2ceb 153f
00000260: be4b 1a3c 24e8 b83d defe c03a 5420 883c
00000270: 96dd 003f 7cc4 673c 5f22 bdbd eb7d aebd
00000280: ab17 1e3d 84bf 163f ca08 e1bd 7a74 adbc
00000290: 7cde babe c614 21be 2608 90be 7d2b ecbd
000002a0: 7a60 0fbe a25b 07be dba4 233f 1340 ed3e
000002b0: 18ab 80be 1eb2 953e e79f f13c ad63 623e
000002c0: 54fa 1ebd 024f ab3f 767c acbc 3eec 7c3d
000002d0: 8c25 8b3d 00e0 333d 9ef4 ab3f 1f28 613f
000002e0: 5df0 aa3c 049d c13e 23c4 9fbe d9c9 dd3e
000002f0: d402 473d c5f4 f93d af5c 023e 8947 083e
00000300: 3d4c 76bd 34df 723b 241f 2b3e 143b 96bc
00000310: 11a2 763f 6080 933c 69bf 3fbe 87b5 aabd
00000320: 1d5d d0bd f8cd 1c3f 08e8 2abe 21b6 853d
00000330: c3bf ce3c 86ff 803c 4909 03be 2912 e83d
00000340: 85f1 7ebd 3126 07bd 25fc 1d3d bc94 13bd
00000350: 158f 7f3e 24e2 2e3d 1048 8cbd 3dee 213b
00000360: c835 163e 1923 99bb afc5 6f3e 173d 8b3e
00000370: 4f69 b83c c7de 8fbd 4f7a 99be 55e3 90bd
00000380: 9faf 29bd a80e 8e3d 6f4a 82bd 26fa 5a3c
00000390: 8108 23be cbe4 ab3d 0630 d6bc af01 713e
000003a0: 770f 1b3e 4519 82bd 7a26 7dbd cdb6 8f3e
000003b0: 6fc4 54be b917 0c3e 6d5f 243e f918 3f3e
000003c0: 132a c83f fc68 243c c7be 07be 5c8b a4bd
000003d0: 177d e83c 5aca febd 07ff 8c3c d95e 0f3d
000003e0: 919e 99bd 7892 a43e 9072 193c 403b 523d
000003f0: 9ee1 253e 1994 11be 9573 04bd d613 633d
