runs/pendulum.pt (torch, 652242 bytes, 5 tensors)

l1.weight f4 [400, 3]
0.20529996 0.38886222 0.122398004 0.06382083 0.28230375 0.06716333 -0.032135036 -0.0974154
-0.20617843 -0.07000716 0.14983048 -0.29182908 0.10388672 0.26331115 0.07395376 0.19498195
-0.04551445 -0.108800024 -0.048329048 0.075462095 -0.2603079 -0.09742179 -0.18616986 0.09029538
-0.22149338 0.009091259 0.017882802 -0.28887418 -0.20004149 0.022346873 -0.18991318 0.3339576
0.008681772 0.24249631 0.34419048 0.13393569 -0.054439686 0.33701292 0.020901551 -0.13899437
-0.19980228 -0.01558421 -0.14865625 -0.27252007 -0.070537865 0.19830605 0.35015693 0.10950581
-0.06244937 -0.27094126 -0.032404523 0.18413247 0.28746092 0.11454875 0.043703005 -0.21775721
-0.17011037 -0.05676629 0.37746212 0.06389104 -0.041950226 0.34932107 -0.38956842 0.28319967
0.4698502 0.16693248 -0.08961804 -0.312221 -0.027069213 -0.05518569 0.06712748 -0.08216868
0.11022218 0.28494507 0.08649035 0.089425966 -0.11473268 -0.0883598 0.039135545 0.06549169
-0.06777702 0.15926386 0.3204042 0.09068202 0.14186324 -0.23050883 -0.07446628 0.23716132
-0.14706282 -0.14930138 -0.046017673 0.2512631 0.029788714 -0.10784443 -0.34776956 -0.08768301
-0.28524193 -0.26417795 -0.016473016 0.1419145 -0.35346672 -0.15314648 -0.0489493 0.44374073
-0.26982588 0.12523323 -0.0008450137 0.050321613 0.1522768 -0.23674466 -0.09124478 0.20272972
-0.21646817 -0.11754713 0.19606432 -0.15583885 -0.13074718 -0.17614357 0.23092319 0.031305913
0.07132929 -0.3873902 0.049204584 -0.04272165 0.06256911 -0.08064029 0.16565269 0.35509256
0.11423931 -0.29353175 0.19718572 0.020951431 0.1479259 0.04191171 0.05562721 0.17338277
0.0016155775 0.02439535 0.051784348 -0.5611675 -0.2426467 -0.03983936 0.13076246 -0.28754294
-0.03659871 0.039283417 -0.00077139447 -0.04797329 0.34048977 -0.38410982 -0.08260714 -0.29983672
-0.024121258 0.09544875 -0.105889164 0.008285436 -0.21523197 0.0129545 -0.012077895 0.23364206
-0.19944695 -0.14268428 0.07801433 0.2611995 0.06998632 0.011813493 -0.09049734 0.20871302
0.18782887 -0.2383078 -0.10243325 -0.097853154 0.24610113 -0.37085316 0.051381007 0.59145135
0.066737875 0.18907899 0.34153593 0.10528324 0.2628414 -0.17021124 0.062121835 -0.049184505
-0.2853047 0.010043035 0.23998067 0.36978894 0.12733862 -0.09432226 0.19855 -0.3308282
-0.08588445 -0.36683676 0.026518703 0.029819852 0.13658898 -0.09167806 0.21414056 -0.051364575
0.08605123 0.11470593 0.043204598 0.012366406 -0.16728786 0.29303786 0.030863637 0.1401602
-0.20938925 -0.08482297 0.15937069 -0.44153655 -0.18559468 0.19668117 0.030995863 0.074224874
-0.05997066 0.5210784 0.08928977 -0.20733546 0.34199834 0.03679568 -0.1938042 -0.32666555
-0.07438252 -0.04408565 0.34810403 -0.3691962 -0.12326137 0.2651709 -0.38434538 0.16248223
0.026475243 0.03995848 0.021916814 -0.601917 -0.10074855 0.18569477 -0.014423659 0.018540807
0.018141374 0.18411255 0.07412822 -0.25856936 -0.15980966 -0.053782936 0.099587165 0.021346966
0.022724453 -0.09482296 -0.11632772 0.00053862843 0.12258849 0.001363697 -0.12598632 -0.107763894
00000000: 273a 523e f318 c73e ceab fa3d 7fb4 823d
00000010: 1e8a 903e ee8c 893d 07a0 03bd ba81 c7bd
00000020: 7020 53be ea5f 8fbd 296d 193e 9f6a 95be
00000030: 90c2 d43d b8d0 863e 1275 973d 59a9 473e
00000040: 5c6d 3abd 8cd2 debd aef4 45bd df8b 9a3d
00000050: 1447 85be 1385 c7bd 50a3 3ebe c9ec b83d
00000060: 29cf 62be 81f3 143c f47e 923c 51e7 93be
00000070: add7 4cbe ca10 b73c 9a78 42be 7efc aa3e
00000080: fe3d 0e3c f450 783e bc39 b03e 7026 093e
00000090: 26fc 5ebd f58c ac3e bb39 ab3c 8a54 0ebe
000000a0: f898 4cbe ea54 7fbc 5839 18be c087 8bbe
000000b0: 2876 90bd be10 4b3e c547 b33e 9544 e03d
000000c0: e9ca 7fbd d0b8 8abe 9bba 04bd 398d 3c3e
000000d0: 142e 933e 8998 ea3d ec01 333d bffb 5ebe
000000e0: 6a31 2ebe c583 68bd b742 c13e 4ed9 823d
000000f0: 00d4 2bbd 36da b23e 8375 c7be 8cff 903e
00000100: 3590 f03e 59f0 2a3e aa89 b7bd 6edb 9fbe
00000110: 41c0 ddbc 640a 62bd 227a 893d 0e48 a8bd
00000120: 2bbc e13d 52e4 913e da21 b13d f624 b73d
00000130: f8f8 eabd fcf5 b4bd 984c 203d 8220 863d
00000140: aece 8abd 1116 233e 050c a43e 7fb7 b93d
00000150: 9944 113e 820a 6cbe c781 98bd 6bda 723e
00000160: a397 16be 76e2 18be 077d 3cbd 8fa5 803e
00000170: 7607 f43c 8add dcbd da0e b2be 2693 b3bd
00000180: 3b0b 92be 5542 87be 6bf2 86bc 0952 113e
00000190: 97f9 b4be 6ed2 1cbe 107f 48bd fc31 e33e
000001a0: 9e26 8abe 243d 003e e983 5dba 091e 4e3d
000001b0: 73ee 1b3e 316d 72be 8bde babd 6198 4f3e
000001c0: d5a9 5dbe 8dbc f0bd 16c5 483e 3894 1fbe
000001d0: 97e2 05be fb5e 34be 2177 6c3e a13a 003d
000001e0: 1715 923d 0258 c6be bf8a 493d e6fc 2ebd
000001f0: 3c24 803d bd26 a5bd dca0 293e b1ce b53e
00000200: 4df6 e93d cb49 96be 0eeb 493e 56a2 ab3c
00000210: e379 173e 9dab 2b3d 5bd9 633d 418b 313e
00000220: c9c1 d33a c2d8 c73c d31b 543d aca8 0fbf
00000230: 6078 78be 992e 23bd 98e6 053e d438 93be
00000240: 87e8 15bd a6e7 203d 6837 4aba a47f 44bd
00000250: ad54 ae3e 0baa c4be ef2d a9bd 3384 99be
00000260: f299 c5bc a27a c33d 6bdc d8bd a3bf 073c
00000270: c565 5cbe 1c3f 543c 5de2 45bc dd3f 6f3e
00000280: d23b 4cbe d41b 12be fac5 9f3d f1bb 853e
00000290: fd54 8f3d 628d 413c ab56 b9bd deb8 553e
000002a0: 3656 403e f606 74be 86c8 d1bd 3c67 c8bd
000002b0: ef01 7c3e 77e0 bdbe e474 523d 5b69 173f
000002c0: dead 883d ec9d 413e ccdd ae3e bd9e d73d
000002d0: 2693 863e db4b 2ebe 7773 7e3d b175 49bd
000002e0: 7513 92be 8b8b 243c 7ebd 753e fa54 bd3e
000002f0: 0e65 023e 072c c1bd b150 4b3e 5062 a9be
00000300: 30e4 afbd 07d2 bbbe c03d d93c c348 f43c
00000310: fbdd 0b3e b5c1 bbbd aa47 5b3e a963 52bd
00000320: a13b b03d f1ea ea3d 4ef7 303d 779c 4a3c
00000330: 824d 2bbe 0f09 963e bdd5 fc3c 2886 0f3e
00000340: 236a 56be aab7 adbd 1232 233e 1411 e2be
00000350: 880c 3ebe ca66 493e 09eb fd3c 3603 983d
00000360: cba3 75bd 6565 053f 8edd b63d bf4f 54be
00000370: 681a af3e 11b7 163d 9c74 46be b540 a7be
00000380: dd55 98bd 2893 34bd b13a b23e 4907 bdbe
00000390: 7570 fcbd 7bc4 873e ebc8 c4be be61 263e
000003a0: 9ce2 d83c 81ab 233d e48a b33c 3c17 1abf
000003b0: 4155 cebd c526 3e3e 3651 6cbc e4e2 973c
000003c0: 389d 943c 0088 3c3e 89d0 973d 3463 84be
000003d0: 25a5 23be 7f4b 5cbd 5bf4 cb3d d5df ae3c
000003e0: a228 ba3c 8a32 c2bd 3a3d eebd be32 0d3a
000003f0: ad0f fb3d 14be b23a 8f02 01be 51b3 dcbd

l1.bias f4 [400]
-0.12635489 -0.057306834 0.009895067 0.03143211 -0.053078856 -0.0929484 -0.02637998 -0.090923935
0.12253437 0.060054716 0.03480734 -0.19331518 -0.058811475 -0.031359643 -0.032322902 -0.046606556
-0.06092903 -0.15419564 0.022303099 -0.047626004 0.07655074 -0.21186145 -0.057815943 -0.14430094
-0.03170435 -0.15938085 -0.121591896 -0.06791983 -0.08649283 -0.12870917 -0.13312265 -0.11232359
0.04278208 -0.0733035 0.09002907 -0.25586838 -0.102608286 -0.119925946 -0.101396106 -0.00021092368
-0.030351717 -0.14480762 -0.035097584 -0.019252313 -0.30210912 -0.20000532 0.057573464 0.06955532
-0.06610896 0.0800122 -0.071633816 -0.103284195 0.032170333 -0.048998144 -0.07203844 -0.014690567
-0.12504688 0.0020273868 0.00080761866 -0.10954845 -0.10757912 -0.079593986 -0.059110172 -0.00743783
-0.08865672 -0.121743605 -0.22576071 -0.13049477 0.032506954 -0.08337945 -0.082917415 -0.20198281
-0.09100699 0.06526524 -0.05038441 0.06908696 0.015606918 -0.18378842 -0.02951733 -0.14360479
-0.012617318 0.048383713 -0.120052695 -0.087870464 -0.06383491 -0.004459486 -0.03407976 -0.09341615
-0.11654861 0.013145014 -0.098426916 -0.06700041 -0.13080023 -0.024776017 -0.0816226 0.0059339227
-0.17982513 -0.09498781 0.057186376 -0.17303856 -0.14424793 -0.10621176 -0.097937055 0.03310689
-0.06815967 -0.16476513 -0.060195386 -0.01677464 0.0899485 -0.04182109 -0.07074664 -0.02952431
0.034526933 -0.018429328 -0.13746873 -0.0027658313 -0.07316704 -0.17388487 -0.005791661 0.09072637
0.0047970326 0.06149903 -0.0038257844 -0.12784772 -0.003665065 0.05392741 -0.103297345 0.028980913
-0.041266326 -0.053164434 -0.014436493 -0.12051013 -0.08804467 -0.042273536 -0.13048112 0.05366779
-0.12019244 0.047513302 0.038035985 0.027323138 0.064350724 -0.10825028 0.00018217898 -0.11160616
-0.015619064 -0.018002672 0.008156898 -0.13967209 -0.084165834 -0.07278057 -0.20859306 -0.09078057
-0.17356375 -0.10969477 -0.09532677 -0.1186517 -0.008505533 -0.18662745 -0.026178045 -0.086635865
-0.13399765 -0.11846986 -0.064723894 -0.08925513 -0.041623313 0.04643823 -0.06857843 -0.03989775
-0.09847936 -0.07708452 -0.2627554 -0.124283016 -0.07857279 -0.08424131 -0.08428121 -0.25780964
-0.08343044 -0.15014872 -0.08948163 -0.06873205 -0.087971784 -0.118793644 -0.119925745 -0.0034717477
0.015093185 -0.044593755 -0.032691356 0.036446944 0.007920887 -0.23464727 0.037061382 0.046346884
-0.14702186 -0.03989715 -0.057752576 -0.074797474 0.06048008 -0.09961153 -0.09199926 -0.09511862
-0.045672186 -0.169664 0.013554244 -0.03340258 -0.08598607 -0.11548429 -0.2067346 0.020344043
-0.088550076 0.054036576 -0.021741532 -0.002161863 -0.119897686 -0.019763166 -0.12955666 -0.11486422
-0.16862263 -0.02871794 -0.117152944 -0.14131823 -0.06364808 -0.2231368 -0.0045209536 -0.094604656
0.0396743 -0.03148867 -0.09527804 -0.029382832 -0.07852566 0.0752548 -0.124428 -0.09885878
0.03173982 -0.06633343 0.012356954 -0.06556053 -0.0459834 -0.011223851 -0.051480908 -0.12983385
-0.20311482 -0.120343044 -0.027432108 -0.042279974 0.007983877 -0.0024954693 -0.095771044 -0.043283578
-0.12498947 -0.12027153 -0.11940857 -0.13831252 -0.06703462 0.0716634 -0.13115434 -0.12114698
00000000: 2d63 01be 92ba 6abd eb1e 223c f5be 003d
00000010: 3769 59bd bb5b bebd d41a d8bc 5436 babd
00000020: 4df3 fa3d effb 753d 2492 0e3d 6af4 45be
00000030: 4de4 70bd f872 00bd 0565 04bd 84e6 3ebd
00000040: b890 79bd 76e5 1dbe fdb4 b63c 7c13 43bd
00000050: a2c6 9c3d 35f2 58be 69d0 6cbd a0c3 13be
00000060: 6cdc 01bd bc34 23be 2c05 f9bd 8d19 8bbd
00000070: 2723 b1bd 56cc 03be 4e51 08be e909 e6bd
00000080: 433c 2f3d 2520 96bd 2961 b83d 2e01 83be
00000090: 4b24 d2bd bc9b f5bd c3a8 cfbd 652b 5db9
000000a0: 2aa4 f8bc 7348 14be 7cc2 0fbd 07b7 9dbc
000000b0: 0cae 9abe 32ce 4cbe 27d2 6b3d 0573 8e3d
000000c0: 2264 87bd 70dd a33d c0b4 92bd aa86 d3bd
000000d0: 0ac5 033d 47b2 48bd e488 93bd b4b0 70bc
000000e0: 4a0c 00be e8dd 043b 5fb6 533a f05a e0bd
000000f0: 7152 dcbd 2c02 a3bd 821d 72bd 0ab9 f3bb
00000100: a891 b5bd b654 f9bd d12d 67be 6ca0 05be
00000110: 0326 053d d8c2 aabd 9bd0 a9bd 95d4 4ebe
00000120: df61 babd c8a9 853d e25f 4ebd 777d 8d3d
00000130: 29b4 7f3c 0833 3cbe 54ce f1bc 220d 13be
00000140: deb8 4ebc 002e 463d 30de f5bd 6ef5 b3bd
00000150: e1bb 82bd e120 92bb 3897 0bbd f750 bfbd
00000160: 0ab1 eebd 2f5e 573c 0d94 c9bd 8337 89bd
00000170: 7ff0 05be 13f7 cabc c029 a7bd 5a71 c23b
00000180: 1424 38be f888 c2bd 433c 6a3d 0531 31be
00000190: bbb5 13be 8d85 d9bd 3993 c8bd 179b 073d
000001a0: 4c97 8bbd 31b8 28be 708f 76bd f86a 89bc
000001b0: eb36 b83d 974c 2bbd 9de3 90bd f7dc f1bc
000001c0: 1d6c 0d3d 1af9 96bc 9ac4 0cbe f342 35bb
000001d0: 9ad8 95bd e00e 32be f9c7 bdbb bfce b93d
000001e0: 6d30 9d3b 68e6 7b3d 03ba 7abb 83ea 02be
000001f0: 9631 70bb fde2 5c3d 8f8d d3bd 6169 ed3c
00000200: e106 29bd f3c2 59bd 0a87 6cbc 04ce f6bd
00000210: c450 b4bd 0427 2dbd d89c 05be c2d2 5b3d
00000220: 7427 f6bd 4f9d 423d 9fcb 1b3d c6d4 df3c
00000230: 50ca 833d 53b2 ddbd 4c07 3f39 c591 e4bd
00000240: 1ae7 7fbc 577a 93bc 83a4 053c 3306 0fbe
00000250: 235f acbd fb0d 95bd 6b99 55be 2aeb b9bd
00000260: b2ba 31be a7a7 e0bd ae3a c3bd aaff f2bd
00000270: cb5a 0bbc 441b 3fbe 5773 d6bc 256e b1bd
00000280: ae36 09be 53a0 f2bd f68d 84bd 65cb b6bd
00000290: 357d 2abd 0336 3e3d d972 8cbd d36b 23bd
000002a0: 8caf c9bd 7dde 9dbd e087 86be 1888 febd
000002b0: c5ea a0bd b586 acbd a19b acbd a0ff 83be
000002c0: 94dd aabd 96c0 19be 2542 b7bd 64c3 8cbd
000002d0: 8d2a b4bd 154a f3bd a19b f5bd 4386 63bb
000002e0: 6849 773c f1a7 36bd 5fe7 05bd 6449 153d
000002f0: 9cc6 013c 6047 70be adcd 173d 3bd6 3d3d
00000300: e68c 16be 326b 23bd f78d 6cbd 6b2f 99bd
00000310: f6b9 773d 2101 ccbd 1c6a bcbd 8dcd c2bd
00000320: c212 3bbd 66bc 2dbe 9f12 5e3c 25d1 08bd
00000330: 7719 b0bd 0783 ecbd 3cb2 53be 8da8 a63c
00000340: be59 b5bd 7555 5d3d 4c1b b2bc 0bae 0dbb
00000350: eb8c f5bd 5de6 a1bc 80aa 04be ef3d ebbd
00000360: 69ab 2cbe e341 ebbc e2ed efbd bab5 10be
00000370: ed59 82bd f97d 64be 8224 94bb 16c0 c1bd
00000380: 8581 223d 43fa 00bd 2221 c3bd 44b4 f0bc
00000390: 10d2 a0bd 301f 9a3d 1bd4 febd 7976 cabd
000003a0: 9d01 023d d2d9 87bd d274 4a3c 9944 86bd
000003b0: 1759 3cbd 3ee4 37bc a5dd 52bd 2af3 04be
000003c0: 55fd 4fbe 6a76 f6bd 4db9 e0bc c42d 2dbd
000003d0: cfce 023c 078b 23bb 9c23 c4bd 1f4a 31bd
000003e0: 7bfa ffbd eb50 f6bd 7b8c f4bd cca1 0dbe
000003f0: 7249 89bd 43c4 923d 534d 06be e81b f8bd

l2.weight f4 [400, 400]
-0.3040031 -0.14784965 -0.2659919 -0.43531582 -0.38488844 -0.05550099 -0.4593848 0.050873835
0.019094765 0.091525845 0.054032728 -0.3800471 0.18429896 -0.022357058 -0.07669856 -0.36087075
0.008585834 -0.28930315 -0.40089378 0.119089015 -0.5535803 -0.404856 0.040362705 0.029447647
-0.29872257 -0.014568598 -0.07238093 -0.31333372 0.121540464 -0.057818532 -0.079918124 -0.040727425
-0.037756693 -0.09655204 -0.42036238 -0.08276433 0.008124077 -0.022576397 -0.04380237 0.07413561
-0.1292739 0.048826963 -0.35602778 0.08950972 -0.08358423 -0.02590023 0.01972716 -0.2713596
0.081776366 -0.3507141 0.03404672 -0.045387454 0.020039663 0.08554622 -0.13375987 0.078544445
0.04424831 -0.91455096 0.20190881 -0.4304702 0.20489076 -0.003491704 -0.32218662 -0.78216
0.01071026 -0.03270551 0.023498042 -0.15634823 0.098708004 0.0057925666 -0.034346685 -0.13449183
0.29850456 0.24092078 -0.1490317 -0.53449714 -0.8354688 -0.00950488 -0.09972339 0.019505732
-0.033756375 0.017066728 -0.040573083 0.015289375 -0.21290569 -0.10445471 0.096832536 -0.32103762
0.030527487 0.24892654 -0.2605274 0.015236498 0.005658764 -0.35689294 -0.20383893 0.23912387
0.17138529 0.009572479 0.090879194 0.034779236 0.17203999 -0.24830507 0.26151896 0.008271824
-0.41049585 0.05966603 -0.29687992 0.0008666241 0.09372171 -0.08998071 0.025027933 -0.2218291
0.106274046 -0.35289603 0.030312644 0.19884208 0.028855758 -0.44293836 -0.32742622 0.07911888
-0.5915819 -0.4125371 0.2653208 -0.061911494 0.2521901 0.038610224 -0.060727358 0.19113562
-0.22844459 -0.057042707 0.0005334258 -0.03438679 0.19377738 0.10266419 0.070086315 -0.2619026
-0.026677994 -0.10059022 -0.080441296 -0.44719848 -0.40690497 -0.023782028 -0.32595038 -0.065761924
-0.019734921 -0.2209909 -0.8185029 -0.097464226 -0.11252411 -0.0810042 -0.21317218 0.203824
-0.017510138 -0.06448151 -0.27637228 0.021875815 -0.2128474 -0.08537829 -0.14163238 0.010111649
-0.080825634 -0.10146837 0.08442059 0.04091608 0.10562892 -0.06418162 0.002989982 -0.026031038
-0.23103453 -0.101833835 -0.07556207 0.07054515 -0.06332315 -0.0023348036 -0.1266544 0.021213733
0.0746406 -0.04130599 0.090269186 0.07446547 0.060271297 0.112901516 -0.26670638 -0.76028466
0.24364759 -0.27437872 -0.27159524 0.084254615 -0.0648542 -0.07778472 0.12786108 0.013053644
-0.05563463 -0.007753551 -0.039819 0.0919642 -0.01589681 0.004785894 0.11319202 0.05330437
0.21017985 -0.066158414 0.0027348811 0.07100073 0.10777933 -0.0318445 -0.15442522 0.020708092
0.19760609 -0.64603597 -0.027733944 -0.015368261 -0.07690387 -0.118703485 -0.009977902 0.099387825
-0.019498616 -0.19310893 -0.022386886 -0.0838022 0.08137506 0.020856105 -0.17005767 -0.17671417
-0.3261459 -0.1381865 0.047842078 -0.41248268 -0.026925404 -0.33176044 -0.08990195 0.07841704
-0.33172268 0.038227964 -0.45551673 0.046318993 0.11779258 -0.050314 -0.0034430071 0.05271802
0.018808331 0.0721657 0.037798483 0.12321329 0.21122393 -0.07481003 -0.36102575 0.014951655
-0.06964821 0.046594117 -0.036005486 0.0047595217 -0.06680399 -0.22724375 -0.04645446 0.21737583
00000000: 4ba6 9bbe e665 17be 1730 88be b7e1 debe
00000010: 1910 c5be 0255 63bd 7c34 ebbe 1561 503d
00000020: a06c 9c3c e771 bb3d 6c51 5d3d 8995 c2be
00000030: deb8 3c3e 2626 b7bc 2214 9dbd 0dc4 b8be
00000040: 99ab 0c3c 8b1f 94be f341 cdbe f1e4 f33d
00000050: 70b7 0dbf 4949 cfbe 5d53 253d 313c f13c
00000060: 2af2 98be 21b1 6ebc 743c 94bd 476d a0be
00000070: 35ea f83d 20d3 6cbd 1dac a3bd cdd1 26bd
00000080: c3a6 1abd 13bd c5bd bd39 d7be 5880 a9bd
00000090: d91a 053c 23f2 b8bc 1d6a 33bd 69d4 973d
000000a0: 6160 04be c8fe 473d 4649 b6be df50 b73d
000000b0: 352e abbd b82c d4bc da9a a13c a5ef 8abe
000000c0: 5e7a a73d cc90 b3be 9374 0b3d 32e8 39bd
000000d0: 382a a43c db32 af3d 59f8 08be e9db a03d
000000e0: b73d 353d 0320 6abf 2fc1 4e3e 9766 dcbe
000000f0: e2ce 513e 12d5 64bb a5f5 a4be a33b 48bf
00000100: 167a 2f3c 36f6 05bd f77e c03c c019 20be
00000110: 6c27 ca3d 92cf bd3b 1caf 0cbd 3ab8 09be
00000120: 97d5 983e f0b3 763e c49b 18be ced4 08bf
00000130: 49e1 55bf 5bba 1bbc c73b ccbd 7cca 9f3c
00000140: 2044 0abd 86cf 8b3c f62f 26bd 4980 7a3c
00000150: f303 5abe 5aec d5bd 2350 c63d 0b5f a4be
00000160: c814 fa3c 99e6 7e3e d963 85be 81a2 793c
00000170: 276d b93b acba b6be 27bb 50be e3dc 743e
00000180: a07f 2f3e e3d5 1c3c df1e ba3d ac74 0e3d
00000190: 402b 303e af43 7ebe d0e5 853e 8b86 073c
000001a0: 832c d2be 5e64 743d a500 98be 292e 633a
000001b0: 2bf1 bf3d ce47 b8bd 6107 cd3c 2b27 63be
000001c0: 35a6 d93d caae b4be 3952 f83c 429d 4b3e
000001d0: e962 ec3c d1c8 e2be 69a4 a7be 1409 a23d
000001e0: e971 17bf 1038 d3be 21d8 873e e896 7dbd
000001f0: 101f 813e c125 1e3d 40bd 78bd 0eb9 433e
00000200: 61ed 69be 9da5 69bd 99d5 0b3a 2ad9 0cbd
00000210: 946d 463e 9a41 d23d 6a89 8f3d 1918 86be
00000220: cf8b dabc 3f02 cebd 68be a4bd 33f7 e4be
00000230: d955 d0be 87d2 c2bc f8e2 a6be 30ae 86bd
00000240: 21ab a1bc 704b 62be 6889 51bf 539b c7bd
00000250: 0a73 e6bd 88e5 a5bd cf49 5abe 3db7 503e
00000260: 6c71 8fbc e20e 84bd ab80 8dbe e934 b33c
00000270: abf4 59be d0da aebd 1408 11be 54ab 253c
00000280: e987 a5bd a6ce cfbd b4e4 ac3d 9f97 273d
00000290: fa53 d83d a771 83bd 93f3 433b 0b3f d5bc
000002a0: 5194 6cbe 428e d0bd 49c0 9abd fa79 903d
000002b0: 91af 81bd 8103 19bb b1b1 01be 6cc8 ad3c
000002c0: 2cdd 983d 7830 29bd 0ddf b83d 5a81 983d
000002d0: 09df 763d e938 e73d bd8d 88be 04a2 42bf
000002e0: c17e 793e 5e7b 8cbe 880e 8bbe af8d ac3d
000002f0: 47d2 84bd 984d 9fbd 04ee 023e f4de 553c
00000300: 23e1 63bd 8011 febb 3f19 23bd ba57 bc3d
00000310: 073a 82bc fdd2 9c3b 38d1 e73d af55 5a3d
00000320: 6339 573e 107e 87bd b13b 333b d568 913d
00000330: 69bb dc3d 616f 02bd a521 1ebe 04a4 a93c
00000340: 4059 4a3e 9d62 25bf 4c32 e3bc 29cb 7bbc
00000350: c77f 9dbd d01a f3bd 5b7a 23bc d88b cb3d
00000360: 90bb 9fbc 59be 45be b464 b7bc 7da0 abbd
00000370: f8a7 a63d 6cda aa3c 9923 2ebe 8ff4 34be
00000380: 98fc a6be c380 0dbe 0ef6 433d ee30 d3be
00000390: aa92 dcbc 81dc a9be 831e b8bd 1d99 a03d
000003a0: 8ed7 a9be ed94 1c3d 7d39 e9be fcb8 3d3d
000003b0: 3c3d f13d 0e16 4ebd 13a4 61bb daee 573d
000003c0: ee13 9a3c 9ccb 933d 95d2 1a3d 4057 fc3d
000003d0: 164b 583e 0036 99bd 5ed8 b8be c9f7 743c
000003e0: b9a3 8ebd 79d9 3e3d 7d7a 13bd c3f5 9b3b
000003f0: 88d0 88bd 96b2 68be 0847 3ebd c597 5e3e

l2.bias f4 [400]
0.02625743 0.09376535 -0.009803326 -0.0007115272 -0.012623489 -0.010391412 -0.0356821 -0.051179357
-0.0337164 0.032724116 -0.0039585736 0.02015705 -0.042171504 -0.009907059 -0.026103802 -0.002243563
0.13943478 -0.023391644 -0.08017008 -0.002636162 -0.026163468 -0.0094751045 -0.027562669 -0.0010225577
-0.018031515 0.106745645 -0.0452641 -0.019216202 0.09693663 0.044039916 -0.06602014 -0.050183352
-0.06458148 -0.013752156 -0.033211984 -0.02733472 0.004491905 -0.0062495284 -0.06037625 0.029685626
0.019797629 0.05304104 -0.07329228 -0.031022612 0.018629929 -0.0066781207 -0.062979355 0.005726604
-0.091212265 0.017919203 0.022448078 -0.0060072094 -0.012243013 -0.010171161 0.09944971 -0.01031015
-0.0041277027 -0.05793806 -0.047387578 0.097866744 -0.0141633395 -0.03208478 -0.009729567 -0.02722925
-0.038206056 -0.022745859 0.024850728 -0.0078527685 -0.013520459 -0.0061967685 -0.10435205 0.10944688
0.04812785 -0.042519625 -0.026309356 -0.01905756 -0.12654084 -0.00788691 0.106242776 -0.017389951
0.019855615 -0.052602336 -0.0098255575 0.014695007 -0.011018814 0.02404388 0.0032407695 -0.02598429
-0.16241112 -0.0066932924 -0.007972397 0.029896226 -0.020580934 -0.005165011 0.015097227 -0.008385851
-0.05207696 -0.012729149 -0.050642267 -0.031988963 0.0013941186 -0.08667872 -0.023925785 -0.026917266
-0.007572504 -0.008304327 -0.008893504 -0.0074173897 -0.0669952 -0.0823536 0.097467594 0.020707969
0.13200806 -0.02386353 -0.007116264 -0.02648659 -0.01824411 0.052433006 -0.009616654 -0.007094973
0.066363275 -0.0663435 -0.076429285 0.07081847 -0.05736468 -0.08662446 -0.074796654 -0.06726425
0.031579677 -0.007964304 -0.006005121 -0.009046211 -0.05694614 0.037979353 0.05997719 -0.009570475
-0.055847753 0.03452255 0.033416383 -0.023922196 0.06428619 -0.070851356 0.011702612 0.12381152
-0.0066269133 -0.0059051425 0.024917264 -0.007964665 -0.04136052 -0.07618331 -0.0064850156 0.07739948
0.029079884 0.03569566 -0.029100649 -0.0031876573 -0.0060054814 -0.0730934 0.0051913057 -0.0074313874
-0.017202314 -0.012855589 0.042231847 -0.0044449065 -0.01143647 -0.011358865 0.08634304 -0.022246877
-0.007732422 -0.010225679 -0.00892502 -0.025425732 0.02729191 -0.033986542 -0.010970336 0.008956938
-0.012169839 -0.036700875 -0.033436395 -0.011115529 -0.030186081 -0.005443029 -0.003619246 0.02563022
-0.007902965 -0.030216988 -0.010959206 -0.10331131 -0.035382807 -0.009959374 -0.0015163065 0.04872954
-0.038055994 -0.1176625 -0.009309244 -0.12078875 0.014117644 -0.008763041 -0.0064066243 -0.0075025996
-0.050942484 0.0097677205 -0.044624034 -0.017049687 -0.035514507 -0.007545192 -0.03833345 -0.13141401
0.0030221122 0.05541126 0.04329951 -0.10539351 0.062072776 -0.019428007 -0.039844245 -0.03091174
0.07082972 -0.04469733 -0.011243935 -0.02406947 -0.025433002 0.02742443 -0.032715827 -0.014619213
-0.008504758 -0.020910347 -0.061177906 -0.014727462 -0.03441286 -0.00860768 -0.030789934 -0.008548848
-0.006969464 -0.03331292 0.17220555 -0.013882807 -0.039007407 -0.0056563565 -0.045083776 -0.008625932
-0.10795258 -0.016658777 -0.05711748 0.001500082 0.12849122 -0.0070314575 0.017420936 -0.0059904684
-0.079103 -0.04630117 0.11617536 0.01877967 -0.024298307 -0.027923197 5.932209e-06 -0.06756501
00000000: d219 d73c 0c08 c03d 219e 20bc c885 3aba
00000010: c0d2 4ebc be40 2abc 6527 12bd 72a1 51bd
00000020: 351a 0abd b909 063d ecb6 81bb 6620 a53c
00000030: 07bc 2cbd 3851 22bc a4d7 d5bc be08 13bb
00000040: fec7 0e3e d59f bfbc 3630 a4bd 76c3 2cbb
00000050: c554 d6bc 783d 1bbc 1bcb e1bc 5807 86ba
00000060: d4b6 93bc 769d da3d d966 39bd 4c6b 9dbc
00000070: b686 c63d 3363 343d 9135 87bd 0f8d 4dbd
00000080: 4c43 84bd b950 61bc 4a09 08bd 10ed dfbc
00000090: d530 933b d8c8 ccbb 164d 77bd 452f f33c
000000a0: a32e a23c 9041 593d 431a 96bd 2223 febc
000000b0: cb9d 983c 23d4 dabb 52fb 80bd 3ca6 bb3b
000000c0: 7fcd babd 4bcb 923c 08e5 b73c 20d8 c4bb
000000d0: eb96 48bc f1a4 26bc 4aac cb3d e7eb 28bc
000000e0: ae41 87bb 7650 6dbd 7a19 42bd 5c6e c83d
000000f0: 5a0d 68bc 556b 03bd c368 1fbc e00f dfbc
00000100: f47d 1cbd 8655 babc c193 cb3c e6a8 00bc
00000110: ea84 5dbc 430e cbbb 87b6 d5bd b025 e03d
00000120: b521 453d 0f29 2ebd b886 d7bc 9a1e 9cbc
00000130: ec93 01be 1938 01bc d095 d93d 5f75 8ebc
00000140: 3ea8 a23c 8c75 57bd 60fb 20bc 54c3 703c
00000150: 4188 34bc acf7 c43c 1763 543b 01dd d4bc
00000160: 1a4f 26be 6853 dbbb a89e 02bc eee8 f43c
00000170: 5999 a8bc 413f a9bb 5c5a 773c cf64 09bc
00000180: a74e 55bd ec8d 50bc 446e 4fbd dc06 03bd
00000190: dcba b63a 9d84 b1bd 0200 c4bc 9981 dcbc
000001a0: c522 f8bb df0e 08bc 0fb6 11bc 930d f3bb
000001b0: c834 89bd 01a9 a8bd 179d c73d c2a3 a93c
000001c0: 1f2d 073e 737d c3bc 8d2f e9bb 68fa d8bc
000001d0: ac74 95bc fec3 563d 2c8f 1dbc f37c e8bb
000001e0: 78e9 873d 1adf 87bd f586 9cbd 4609 913d
000001f0: 3af7 6abd 2a68 b1bd fd2e 99bd d7c1 89bd
00000200: b159 013d b67c 02bc 9bc6 c4bb 8f36 14bc
00000210: 5b40 69bd 3d90 1b3d a4aa 753d 7bcd 1cbc
00000220: 9dc0 64bd 8467 0d3d 9edf 083d 7bf8 c3bc
00000230: 7aa8 833d 841a 91bd 50bc 3f3c e590 fd3d
00000240: 9426 d9bb ed7f c1bb 4a1f cc3c 3a7e 02bc
00000250: a669 29bd ff05 9cbd 4180 d4bb 9e83 9e3d
00000260: f038 ee3c 9d35 123d 7c64 eebc 04e8 50bb
00000270: a1c9 c4bb feb1 95bd d41b aa3b ff82 f3bb
00000280: deeb 8cbc 40a0 52bc 4dfb 2c3d 94a6 91bb
00000290: 0860 3bbc 881a 3abc 9fd4 b03d 153f b6bc
000002a0: 4260 fdbb 9b89 27bc 3f3a 12bc a049 d0bc
000002b0: 4993 df3c 7935 0bbd edbc 33bc 1fc0 123c
000002c0: 0164 47bc a853 16bd 9af4 08bd e81d 36bc
000002d0: cd48 f7bc 705b b2bb df30 6dbb 78f6 d13c
000002e0: 707b 01bc 9e89 f7bc 3e8e 33bc e194 d3bd
000002f0: 90ed 10bd a42c 23bc cebe c6ba a098 473d
00000300: 9ae0 1bbd 09f9 f0bd cd85 18bc 1860 f7bd
00000310: b14d 673c dc92 0fbc a9ee d1bb 5ed8 f5bb
00000320: 11a9 50bd ca08 203c b1c7 36bd c9ab 8bbc
00000330: a977 11bd a83d f7bb 8903 1dbd 6591 06be
00000340: a10e 463b ebf6 623d d45a 313d 8dd8 d7bd
00000350: 0640 7e3d 7c27 9fbc b833 23bd 9e3a fdbc
00000360: 2c0f 913d 8c14 37bd 7b38 38bc 562d c5bc
00000370: df58 d0bc 33a9 e03c 0801 06bd 6c85 6fbc
00000380: 8a57 0bbc 2d4c abbc af95 7abd 744b 71bc
00000390: 80f4 0cbd 3a07 0dbc 2c3b fcbc 7810 0cbc
000003a0: 1a60 e4bb 2173 08bd a756 303e b774 63bc
000003b0: 3bc6 1fbd f558 b9bb c4a9 38bd c853 0dbc
000003c0: 3e16 ddbd fd77 88bc 05f4 69bd 669e c43a
000003d0: 3493 033e 2468 e6bb 5ab6 8e3c b14b c4bb
000003e0: c100 a2bd 4ca6 3dbd 59ed ed3d d3d7 993c
000003f0: 3e0d c7bc 30bf e4bc 4a0d c736 865f 8abd

l3.weight f4 [1, 400]
0.65078515 -0.031477615 0.0692986 0.25109717 -0.030699585 -0.00672463 0.06153763 0.10090124
-0.21755585 -0.29174465 0.068622544 -0.1565433 0.0111774625 -0.017666208 -0.33914286 0.17043443
-0.13984533 -0.057733208 0.024580745 0.013556733 0.08888408 -0.039965015 0.031684816 0.041181173
0.0040194774 -0.5358351 0.017877312 -0.0022782718 -0.15120874 -0.1223423 0.019454716 -0.074102916
0.12702456 0.04885244 0.059070773 -0.014298803 0.081612654 0.08022702 -0.11345759 0.66885746
0.58107495 0.22205666 -0.36232632 0.07082988 -0.032461803 0.40229973 0.009315023 0.2526774
-0.007907879 0.26536578 -0.17884842 -0.014645409 -0.10736053 0.0012803738 -0.08037326 0.0011437933
0.0037683167 0.013590803 0.0037293755 -0.24584723 -0.050075345 0.015738586 0.004825028 0.018709172
-0.0011762009 -0.07405893 0.45224062 -0.030536054 -0.057791784 -0.013728144 0.13300434 -0.42474842
0.51052445 0.005759102 0.018128058 -0.012567993 0.026010081 -0.049233615 -0.3508342 -0.008683623
0.41757214 -0.028977076 -0.0033133216 0.2182443 -0.08214164 -0.118486434 0.034067515 0.059164148
0.052969214 0.06655737 0.108920574 -0.24557842 -0.012967831 0.10723619 0.28580824 -0.038688824
0.03501405 -0.19297744 -0.009679898 -0.13042949 -0.00018502431 -0.006582492 0.00399876 0.016835395
-0.0056380243 -0.08307481 -0.06651056 0.11253334 0.0636752 0.05159641 -0.41457856 -0.34164932
-0.05722009 -0.012274546 -0.08257369 0.07578312 -0.06736907 -0.2922771 -0.049427886 0.052210882
-0.46183717 0.011844872 -0.28469437 -0.3584511 0.11606812 0.005347377 0.043028895 0.01028242
-0.17759201 0.058281492 -0.09487573 0.0013257561 0.00067912054 0.34023303 0.43905887 -0.09365793
-0.047210265 0.08185084 0.1960139 0.045365557 0.6576475 0.045620967 -0.1336841 -0.4529084
-0.107781895 -0.041877974 0.6628751 -0.05568328 -0.01387204 -0.041138556 0.21122122 1.0262154
-0.10608717 0.6096655 0.013402899 0.27294788 -0.09799872 -0.30664143 0.0955912 -0.0064122006
0.02556951 -0.08614618 -0.09962862 -0.018611616 -0.075968 0.023811834 0.53841454 0.007014742
0.10514498 -0.07372198 -0.052706957 -0.016182719 -0.29416093 -0.0022125938 0.0042372555 0.30030793
-0.08089482 -0.0677732 0.03300537 1.0092771e-05 0.027898904 -0.073869556 -0.07196899 -0.3045728
-0.081951864 0.019281447 -0.09693116 -0.000833616 0.101941615 -0.10163645 -0.38834482 -0.19274749
-0.10775758 0.09017532 -0.0020247519 0.01966339 0.052993525 -0.07979213 0.0800108 0.1021364
-0.03735455 -0.5149167 0.082780115 -0.0065419474 0.06486588 0.1126106 -0.030022595 0.035397194
0.38224185 0.54954153 0.029334432 0.02827763 0.36068758 0.010202728 0.07068848 0.0008480259
-0.18172325 -0.010087064 -0.016451545 -0.008693717 -0.07252433 0.67481256 0.009079545 -0.05378023
0.07885013 -0.00014016968 0.02340175 0.0032644374 0.08809741 0.0075570215 -0.1884044 -0.06493182
0.10771797 -0.028203895 -0.15534557 -0.08624837 -0.052335165 0.0008243493 0.001053601 -0.022644183
0.00944239 0.22625108 -0.08571193 0.17915618 -0.22971572 -0.07234965 -0.028317709 0.1921369
0.02576914 0.014243119 -0.54146147 -0.009003719 0.24036407 0.003235768 -0.05394129 0.028176736
00000000: db99 263f acee 00bd 6dec 8d3d cf8f 803e
00000010: b27d fbbc 495a dcbb e20e 7c3d 4fa5 ce3d
00000020: f6c6 5ebe 8e5f 95be fa89 8c3d e34c 20be
00000030: ad21 373c b9b8 90bc 22a4 adbe 5d86 2e3e
00000040: 9d33 0fbe a879 6cbd 8f5d c93c 0f1d 5e3c
00000050: db08 b63d 5bb2 23bd f0c7 013d 97ad 283d
00000060: d2b5 833b 7d2c 09bf 7173 923c 0f4f 15bb
00000070: 77d6 1abe 9a8e fabd 7f5f 9f3c 45c3 97bd
00000080: ba12 023e 7f19 483d 32f4 713d 8745 6abc
00000090: 8924 a73d 104e a43d 745c e8bd 3e3a 2b3f
000000a0: 54c1 143f d262 633e d682 b9be 420f 913d
000000b0: abf6 04bd 3bfa cd3e 0a9e 183c ef5e 813e
000000c0: 0c90 01bc 06de 873e 0a24 37be 4cf3 6fbc
000000d0: d6df dbbd 37d2 a73a bc9a a4bd 56eb 953a
000000e0: ddf5 763b f6ab 5e3c 8a68 743b 60bf 7bbe
000000f0: ce1b 4dbd 35ee 803c 451b 9e3b fa43 993c
00000100: c12a 9aba 35ac 97bd 158c e73e bf26 fabc
00000110: 14b7 6cbd 02ec 60bc 4a32 083e a078 d9be
00000120: bbb1 023f d9b6 bc3b 4b81 943c fce9 4dbc
00000130: 1813 d53c 30a9 49bd 8aa0 b3be c145 0ebc
00000140: 04cc d53e 5561 edbc 5024 59bb 6f7b 5f3e
00000150: e039 a8bd 04a9 f2bd 618a 0b3d 1b56 723d
00000160: 3ff6 583d 3b4f 883d c011 df3d e978 7bbe
00000170: 0777 54bc a69e db3d 7555 923e 2c78 1ebd
00000180: e46a 0f3d e19b 45be 6f98 1ebc 4f8f 05be
00000190: 1603 42b9 f2b1 d7bb 0808 833b 62ea 893c
000001a0: 2dbf b8bb 2023 aabd b036 88bd e177 e63d
000001b0: 2568 823d c256 533d a443 d4be a9ec aebe
000001c0: 9d5f 6abd 2d1b 49bc 651c a9bd 2e34 9b3d
000001d0: ccf8 89bd 58a5 95be e574 4abd 14db 553d
000001e0: ec75 ecbe fe10 423c 76c3 91be e786 b7be
000001f0: 1fb5 ed3d 0d39 af3b 113f 303d 9877 283c
00000200: aeda 35be 93b8 6e3d 354e c2bd fec4 ad3a
00000210: 0207 323a 0633 ae3e 53cc e03e bbcf bfbd
00000220: 8d5f 41bd 6aa1 a73d deb7 483e 3cd1 393d
00000230: 965b 283f 0ddd 3a3d 7ce4 08be 9ce3 e7be
00000240: c1bc dcbd 3d88 2bbd 2fb2 293f 2714 64bd
00000250: 8e47 63bc e780 28bd 604a 583e 075b 833f
00000260: 3b44 d9bd 0a13 1c3f d597 5b3c d3bf 8b3e
00000270: 8eb3 c8bd 1b00 9dbe 52c5 c33d 701d d2bb
00000280: 2677 d13c 696d b0bd 170a ccbd 6377 98bc
00000290: 1c95 9bbd 0911 c33c 89d5 093f ecdb e53b
000002a0: 4056 d73d 8dfb 96bd 40e3 57bd 9f91 84bc
000002b0: 439c 96be 2a01 11bb add8 8a3b f6c1 993e
000002c0: 2fac a5bd adcc 8abd a430 073d 1f54 2937
000002d0: 3e8c e43c ec48 97bd 7a64 93bd f7f0 9bbe
000002e0: 61d6 a7bd 20f4 9d3c d883 c6bd 0687 5aba
000002f0: c4c6 d03d c526 d0bd 22d5 c6be 995f 45be
00000300: 02b0 dcbd d7ad b83d b3b1 04bb 1e15 a13c
00000310: bd0f 593d 0e6a a3bd b4dc a33d e42c d13d
00000320: 1601 19bd 95d1 03bf 9f88 a93d d55d d6bb
00000330: 67d8 843d 63a0 e63d f2f1 f5bc a6fc 103d
00000340: 34b5 c33e c1ae 0c3f c34e f03c 7da6 e73c
00000350: 0bac b83e 5829 273c 1fc5 903d 0e4e 5e3a
00000360: a915 3abe 3644 25bc 64c5 86bc 1870 0ebc
00000370: a387 94bd 84c0 2c3f 5fc2 143c a948 5cbd
00000380: 2d7c a13d 83fa 12b9 07b5 bf3c 2cf0 553b
00000390: 6a6c b43d e4a0 f73b 15ed 40be f9fa 84bd
000003a0: 3d9b dc3d db0b e7bc e912 1fbe fca2 b0bd
000003b0: 665d 56bd 2519 583a fc18 8a3a 4b80 b9bc
000003c0: 41b4 1a3c 5dae 673e bd89 afbd b874 373e
000003d0: 993a 6bbe 0e2c 94bd 8afa e7bc 89bf 443e
000003e0: ce19 d33c f95b 693c 389d 0abf 5684 13bc
000003f0: 0022 763e 2e0f 543b 8bf1 5cbd e6d2 e63c
