runs/pendulum1.pt (torch, 652316 bytes, 5 tensors)

layer1.weight f4 [400, 3]
00000000: 1e6e 163f 7ecf f1bd aaf4 89be 8561 803d
00000010: 1b16 493f 7f6c bbbe e884 e63e 6336 00bf
00000020: d787 9d3e c1d5 68be 9014 dabe 2925 a7be
00000030: e182 bc3e 68aa 20bf 1485 a2bb 3cb5 07bf
00000040: 78e2 f33e c50a 273e 160f f93d fa95 b83e
00000050: 94ca 213e 00a7 efbe 499f 4cbf 6ecf a7be
00000060: 6bf3 383f 071f 23bf cc3d 5bbe 7f8d 3d3d
00000070: 1eed 1fbe b9b5 013b 5f05 203f 4699 9c3e
00000080: 2dac aebe 0d43 82bd 4fc5 603c 0cc0 393e
00000090: fe04 19be 04d9 523f 6634 dc3e 6b95 093d
000000a0: cc70 e23d 158c 803e c700 8b3e 86dc 1a3e
000000b0: b940 8abe bd90 ce3e c985 003f 3727 253e
000000c0: 19d1 60bf cd87 c6be ed4f 8c3c e1fa 8e3e
000000d0: 4566 f2be ec49 87be 1909 b03e fc62 fd3e
000000e0: f176 983d 9990 b43e 1987 31bf 4229 633e
000000f0: 3312 12bf f824 4c3f e145 83bd 51ac 123f
00000100: fdbf 05bf a0d1 b4be a030 bfbd 76c0 813f
00000110: d7b4 653e 4d63 fc3d c9ab 3d3f c8ff 363e
00000120: 8f45 193f 4622 873d b725 e93e 5d51 883d
00000130: a5bd 1d3f 9c21 ebbe deea b3bd b29e b5be
00000140: 1652 6dbd d9d1 bc3e df3d c9be ad1b bfbe
00000150: 926c fabd 7f3b 4dbe 92da a43e f9f6 3f3e
00000160: d5c2 023f ca77 43bd 2e6c 033f 9f08 16bf
00000170: 4c6f cebe b1da bdbe 1776 963e c3a9 d33e
00000180: d2ae 253e 4e25 29bf 34e4 a23e 1c3b 813e
00000190: 1670 b63e 7bea b0be 1e42 8fbd 4532 2bbf
000001a0: af50 87be efe1 4c3e 6b7d d43e 96ba a4be
000001b0: 19f7 c1be edf1 f2be 3bf7 b73d f8fb eb3e
000001c0: a976 f8be 3598 97be fa3d 123f faf7 8ebe
000001d0: 41dc 6ebe 9727 233e 53b0 e23c 1e70 4dbd
000001e0: 075e d03d e9b7 223f 7997 a3be 11a4 093f
000001f0: 95a5 5cbf fdc8 5ebd 888d 43bd c3a8 f33e
00000200: 4553 08bf 812e 053f 68d8 b6be 152c d1be
00000210: b259 b73d 45fd 023f 0a12 cabe fba0 6e3f
00000220: 0a2b 2ebe 223b 65be 3e8f 0e3f b2af a83e
00000230: dffd 29be d7f4 023f 60d1 7cbe 5231 043f
00000240: c110 c23e 42d5 3b3f 89e9 8c3e 7e4f 9fbe
00000250: 5ad7 52be 1cc2 983e 7613 e43e c0ea 99be
00000260: 1fd8 043f 8512 e9be 3763 603f 6d11 9a3d
00000270: 4584 a7be e2cc c9be 042f 1cbe 73dc cdbe
00000280: 9067 14bf 05a1 87be 5bc8 28be bbed 973e
00000290: 22d6 ac3e e2bf a0be e977 e3be 3984 b83d
000002a0: efba b5be 714a 5cbf 832f 71be 20c5 40be
000002b0: 8a47 863e 7e7e a7be 25b5 32be df38 213f
000002c0: e9d2 993e e3af 7ebe 4787 5a3e 065c 9dbe
000002d0: dd65 ebbe 9f52 8bbe 6808 02bf 8e8c f1bc
000002e0: 1337 4b3f 68b6 913e 852f e93e 49a0 04be
000002f0: 7849 58be ede5 113e 1e80 0e3f 9612 87be
00000300: 5a3e d1be 0ac6 c03e 3be2 7c3e 51a1 3f3e
00000310: 993d 423e 5c59 5ebe 5d3b 863e d415 8ebe
00000320: dcdb 653e 32a5 873d 8a4a 443f 44e5 c9be
00000330: 4a95 38bf e799 89be ce7d 1c3e 2f39 8a3e
00000340: 2721 ae3e 42e1 15bf 76ac 503e 685b 183d
00000350: cd59 8fbe df25 0b3f b757 2f3f 9c1c 0c3e
00000360: b1e7 403e 248a cebe 7bcc 783e 0162 bc3d
00000370: 4a46 183f 32e1 883e 0eb2 ffbd df4f 7f3e
00000380: d37d a7bc d12f 69be b088 643e eb5d 883c
00000390: 06f2 133f 672c ed3e b59d d4be 69f7 1bbe
000003a0: e1ad a2be 4c62 0d3e 2cf1 afbc 53af 55bf
000003b0: ada4 8b3d 350e 0fbe c780 123e 9800 acbe
000003c0: 66c3 0abd 65a8 4e3f a48f c03e b39f b9be
000003d0: 5200 02bf d581 38bd 9c4c 29bf f9e4 593d
000003e0: ba27 6b3e 0041 28bf 40e1 b23e 7546 83be
000003f0: b5cf a6bd 07aa 24bc c636 6fbe 7637 94be
0.58761775 -0.11807154 -0.26944476 0.062686004 0.78549355 -0.36606213 0.45023274 -0.5008299
0.307677 -0.2273779 -0.42593813 -0.32645538 0.36818603 -0.6276002 -0.004959712 -0.53010917
0.4763372 0.16312702 0.121610805 0.36051923 0.15799934 -0.46807098 -0.7993055 -0.32775444
0.72246426 -0.6371922 -0.21410292 0.04627752 -0.15617797 0.0019792153 0.62508196 0.30585688
-0.34115735 -0.06360445 0.013718917 0.18139666 -0.1494331 0.8236239 0.43008727 0.03358976
0.110566705 0.25106874 0.2714903 0.15123186 -0.27002504 0.40344802 0.5020414 0.1612824
-0.8781906 -0.38775483 0.017127955 0.2792578 -0.4734365 -0.26423585 0.3438194 0.49489582
0.07444561 0.3526657 -0.6934677 0.22183707 -0.5705902 0.7974391 -0.06409813 0.57294184
-0.52246076 -0.3531618 -0.09335446 1.013686 0.22432266 0.123236276 0.7409025 0.1787101
0.59871763 0.06598334 0.45536587 0.06656144 0.616175 -0.4592408 -0.08785032 -0.35472637
-0.05793961 0.3687885 -0.39305016 -0.37325802 -0.122277394 -0.20042227 0.32198006 0.18746556
0.5107854 -0.04772166 0.51336944 -0.58606905 -0.40319288 -0.3708091 0.2938697 0.41340455
0.1617997 -0.6607255 0.3181473 0.2524041 0.3563239 -0.34553894 -0.06995033 -0.6687358
-0.26428744 0.20008062 0.41501936 -0.32173604 -0.37883833 -0.474502 0.08982702 0.46090674
-0.4852803 -0.29608312 0.5712582 -0.27923566 -0.23326208 0.15933071 0.027671969 -0.05015575
0.10174184 0.63561875 -0.31951502 0.5376597 -0.8619016 -0.054390896 -0.047742397 0.47589692
-0.5325206 0.52024084 -0.3571198 -0.40853944 0.08952655 0.5116771 -0.39466888 0.93214387
-0.17008606 -0.22385839 0.5568732 0.32946545 -0.1660075 0.51154846 -0.24689245 0.51637757
0.37903407 0.7337228 0.27521923 -0.31115335 -0.20589963 0.29835594 0.44546098 -0.30061913
0.51892275 -0.45521942 0.8765139 0.07522855 -0.327181 -0.39414126 -0.1525231 -0.40207252
-0.57970524 -0.26490036 -0.1648268 0.2967356 0.3375712 -0.31396395 -0.44427422 0.090095945
-0.35494182 -0.8605109 -0.2355328 -0.18825197 0.26226455 -0.32713693 -0.17451914 0.62977403
0.30043724 -0.24871783 0.21340667 -0.3073427 -0.45976153 -0.27211472 -0.50794077 -0.029485967
0.7938091 0.28459477 0.45544067 -0.12951769 -0.21121776 0.14247866 0.5566424 -0.26381367
-0.40867883 0.37651092 0.24695675 0.18713881 0.1896881 -0.21713775 0.26217166 -0.2775103
0.22447151 0.066233054 0.7667624 -0.39432728 -0.721028 -0.2687523 0.15282366 0.26996753
0.34009668 -0.5854684 0.20378289 0.037196547 -0.279982 0.5435466 0.6849322 0.13682789
0.18838383 -0.40339768 0.24296753 0.0919838 0.5948225 0.2673431 -0.12485133 0.24932812
-0.02044574 -0.22772147 0.22317767 0.016646346 0.57791173 0.4632294 -0.4152657 -0.15231098
-0.31773284 0.13807029 -0.021477304 -0.8347065 0.06818519 -0.13970263 0.14306937 -0.33594203
-0.033877753 0.807257 0.3760959 -0.36254653 -0.5078174 -0.045045692 -0.6613252 0.05319688
0.22964373 -0.6572418 0.34937477 -0.25639692 -0.08145086 -0.010050303 -0.23360738 -0.28948563

layer1.bias f4 [400]
00000000: b4e1 823e fe19 0d3d 0058 253e 70dc 04bf
00000010: f977 333f bb07 debd 65a5 bcbd 1aeb edbe
00000020: 9cd6 503e 2c46 aebe 7fc0 8f3d a0ee 1dbf
00000030: 91f5 d6be 2fe7 17be 3de3 9e3e 4a30 46be
00000040: a089 4b3f b616 24be 9e8a 613e 005b bf3e
00000050: 754f f7bd 983b 57be 1543 ffbe ad59 003f
00000060: bbb3 c43e 0e6b 913e cc10 01be 1be0 d8bd
00000070: d7d2 76bc 5e15 6dbe 071e 4c3e cb70 bfbe
00000080: 48cf 43be 9301 cb3e 2fb2 13bf 2c1e ebbe
00000090: 880f 073f deca 38be 9d1b e33e 985d 073f
000000a0: 7a8b b33e 285a d8bd 1d2a 703e dd1a 11bf
000000b0: 0eeb a43e 4ed1 6cbd e0dd f2be e4f6 1b3e
000000c0: 3bda 8dbe 20ce 2dbe 09cd 4bbd f2e1 83bd
000000d0: 257a 15bf e0d3 96be 7dc6 aa3e e49b ed3e
000000e0: cb72 bc3e 4c03 e63d c59e ffbe b8cd a43e
000000f0: 1b18 d0be 958a 12bd 8632 923e b344 c33e
00000100: af73 e03c 6fa5 ccbe f3a9 b73d ca31 e63e
00000110: 94ce 6c3e 5557 c23e 0115 b6be 91a3 d23e
00000120: af92 a3bc ef63 c13e dd72 e43e fb9f efbe
00000130: 4634 88be 3972 98be 523a 283f 833d 50bd
00000140: 7845 11bf 91fe b9bd d23c 3dbd 12c5 003c
00000150: c219 81bd 4860 e3be 69e7 4c3e 5301 2cbd
00000160: 3b25 f73e 9c25 3abe 96de 523e c5a0 e33e
00000170: 8c67 5dbc 9126 5cbe 84b8 20bc ace4 873d
00000180: f691 0fbf 2b03 c6bd fd83 0fbf b3e7 23bc
00000190: 81d6 98be 0750 69be af58 153f 3799 a73e
000001a0: d7cc 6c3e cbc9 05bf c79f ebbe 9c58 0fbf
000001b0: 4c08 9c3e 7bc5 883e b3c7 b8be f017 bbbe
000001c0: 378a 08bf f12f de3e f9bb 813c 66ad 273e
000001d0: bc8b 8abe e74d 2f3e 0b3d 6e3d 401b 633e
000001e0: 946b fe3e 727d 5b3d a0f8 f5bd 5c3b 8abd
000001f0: 1db8 3b3d 566d ad3c 8549 ed3d 71b2 fa3e
00000200: 423b 9d3e 2ddd 213f 603e 42bf d1b3 663e
00000210: 9a45 b0bd d9e4 c33c 2384 dcbe a789 6cbe
00000220: 44ab ab3d 786f d83e 1d50 dabe b29f 17bf
00000230: c9ad a0be f7e6 dd3e 50a1 033f 5023 3b3f
00000240: d664 c43d a8d0 e0be 6cb1 da3e 5f8d 243d
00000250: 8eed acbd 5c6f debe edd0 04bf 5c7b f0be
00000260: 3f7c 223e 7f25 3fbf 221b 37be f073 b33e
00000270: 4e32 40bf dce6 abbd b9e5 a6be dff1 6b3d
00000280: 1c92 193f 4237 abbe e379 69be 314c dd3e
00000290: 35b5 eabe 93af b83e e9ac 2cbe 59bf 10bf
000002a0: ec4c 883c d53f eabd 8f9c 193f 8f94 01bf
000002b0: 371b 443e 80cf 233f 1ebc 0bbe a7e7 af3c
000002c0: ce56 01bf 718a 0dbf cd10 0c3e 90ab f9bd
000002d0: eb2f 783e 92fa 13bf 3208 eabe 5f85 b23e
000002e0: a1fd e63e e75d be3e 4647 12be bf64 ac3d
000002f0: 7ef3 08bf 181f 843e 0a35 a03d 8a61 273e
00000300: 5184 f93e 8cfb a0be 97a4 e4bd 0247 0dbd
00000310: 115c 60be 4850 c93c 1c6d 5f3e 9345 33bf
00000320: e274 d6be 153b 753e e66c 083f d8ef e6bd
00000330: 585d b0be 0b49 f5bc 5d4f 8e3d 643c 853e
00000340: 5c88 e8be e76d 02be 9ac2 fa3d 6e6e 0fbf
00000350: 2c6e 88bd a386 ffbe 4397 6e3e 4c97 1c3e
00000360: 1984 e8be ffa1 0b3f 686b 883c 65a9 a33e
00000370: 10d5 663e 4001 24bf 3d6b 6fbe 8e32 83be
00000380: 9273 11bf 925c 033e 9140 28bf 344b 2e3b
00000390: 915d 67bd 38ec 00bf b956 b13e 2c56 f23e
000003a0: 7637 50be 922d 823d b77a e6be 0c0e b1be
000003b0: 856c 8cbe 35f0 873e b097 47be 44e7 10bf
000003c0: 4dcf eebd 3281 bfbe 63f5 7c3e 5cc0 d9be
000003d0: 06cd be3e b035 083f 7d1c 003f cbd9 003f
000003e0: 2eb5 a0be 21d5 e9be 1b6b d43e 441c bbbd
000003f0: a57a 9f3e 78bd 143f 256f 05be 43ab d5be
0.25562823 0.034448616 0.1614685 -0.5189886 0.7010494 -0.10841318 -0.09211234 -0.4646843
0.20394367 -0.34037912 0.070191376 -0.6169224 -0.41984227 -0.14834283 0.31032744 -0.19354358
0.79506874 -0.16024289 0.22025535 0.37374115 -0.12075702 -0.21018827 -0.49855867 0.50136834
0.38418373 0.2840199 -0.12604064 -0.1058962 -0.015064917 -0.23152682 0.1993333 -0.37390742
-0.1912204 0.3964964 -0.5769376 -0.45921457 0.52758074 -0.18046138 0.44357005 0.5287719
0.3506735 -0.10564071 0.23453565 -0.56681615 0.32210582 -0.057816796 -0.47434902 0.152309
-0.2770556 -0.16973162 -0.049756084 -0.0643958 -0.583895 -0.29458523 0.3335456 0.46407998
0.3680633 0.112310976 -0.4992582 0.321882 -0.4064339 -0.035776693 0.2855417 0.3813835
0.027398912 -0.39969966 0.08967962 0.4495986 0.23125678 0.37957254 -0.355629 0.41140416
-0.019967405 0.37771556 0.44618884 -0.46801743 -0.2660238 -0.29774645 0.6571399 -0.050839912
-0.56746626 -0.09081758 -0.04620058 0.007859485 -0.06303741 -0.44409394 0.20010151 -0.04199345
0.48270592 -0.1817841 0.20592722 0.44458595 -0.013513457 -0.21499087 -0.009809617 0.066354126
-0.56082094 -0.09668573 -0.56060773 -0.010003972 -0.29851153 -0.22784434 0.58338445 0.3273408
0.23125015 -0.52261037 -0.46020338 -0.5599458 0.3047508 0.26713166 -0.36089858 -0.365417
-0.533359 0.4339595 0.015836703 0.1637474 -0.27059734 0.17119561 0.058163684 0.22178364
0.4969145 0.05358643 -0.12010312 -0.06749603 0.04582988 0.0211703 0.11586288 0.48964265
0.30709273 0.6322811 -0.75876427 0.22529532 -0.086070254 0.023912834 -0.43069562 -0.23099385
0.08382276 0.42272544 -0.42639247 -0.5922805 -0.31382588 0.43340275 0.5141802 0.7310076
0.095895454 -0.43909192 0.42713487 0.040173884 -0.084437475 -0.43444335 -0.51881295 -0.46969116
0.15867709 -0.7466659 -0.17881444 0.3504939 -0.7507676 -0.08393642 -0.3259714 0.057603713
0.5998857 -0.33440596 -0.22800402 0.43222192 -0.45841375 0.36071452 -0.16862835 -0.56541973
0.016638242 -0.11437956 0.60004514 -0.5061731 0.19151007 0.63988495 -0.1364598 0.021472765
-0.5052308 -0.5528937 0.13678284 -0.12190926 0.24237029 -0.57804215 -0.45709378 0.3486738
0.45115378 0.37181017 -0.14285001 0.08417653 -0.5349654 0.25804973 0.078226164 0.16345802
0.48733762 -0.31441915 -0.111642055 -0.034491546 -0.2191012 0.024574414 0.21818966 -0.70028037
-0.4188605 0.2394832 0.53291166 -0.11276215 -0.34446216 -0.029942056 0.06948731 0.26022637
-0.45416534 -0.12737237 0.122441486 -0.5602788 -0.066616386 -0.49907407 0.2329989 0.1529209
-0.45413283 0.5454406 0.016652778 0.31965175 0.22542214 -0.6406441 -0.23380752 -0.25624508
-0.5681697 0.12828282 -0.6572352 0.0026595118 -0.056485716 -0.5036044 0.34636477 0.4733137
-0.20333657 0.06356348 -0.450155 -0.3458103 -0.27426544 0.2655045 -0.19491458 -0.56602883
-0.11660633 -0.37403256 0.24702983 -0.4252957 0.37265795 0.5320692 0.5004347 0.50332326
-0.3138823 -0.45670417 0.41487965 -0.091362506 0.31148258 0.58101606 -0.1303068 -0.41732225

layer2.weight f4 [400, 400]
00000000: 64b1 53bd 9d0d ebbc 5cdb d7bc b6aa 24bd
00000010: c328 b9bc 3f37 21bc 57e7 edbb 11b6 133c
00000020: 8751 483c 4387 ddbc 9dff 1cbd bd00 a53c
00000030: e490 803c 7f23 13bc 974c 80ba de0d 133d
00000040: aba7 0a3d 189a 6ebc 21cb 39bd cfe8 883c
00000050: 1d13 0bbd c37b 933c 6b38 0dbd cdc2 4fbc
00000060: e46a 26bd ce06 8fbd edcb ebbc 2ec9 07bc
00000070: da99 07bd 2545 3f3d c6a2 cebc 2cf7 16bd
00000080: 2849 2cbd f841 8ebc 3eb0 923d 8b17 25bd
00000090: 8ce6 c5bc acd1 993c 0b7d 6f3c d073 5cbd
000000a0: 56d0 d5bb cb96 643d 0582 76bb 52ec 4f3c
000000b0: c65b f3bc 82fa b43b f33b 78bd 0789 7a3b
000000c0: a360 7a3c 3d50 6dba d9e7 56bd 1fe9 90bc
000000d0: 59da 053e 8fca e4bb 224e e23c 2b09 2b3d
000000e0: 862a 183d 53dc 553c 2d69 4a3c 7830 593c
000000f0: d99a dfbc 350c 08bd 0727 1d3d 0ba7 14bd
00000100: f520 283c 2908 55bc d780 35bc 3b2d e7bc
00000110: b620 a4bc 16bd a6bb 61ac e0bb 72ac 67bc
00000120: 1f18 b33c a741 7cbc b359 f23c 8a80 b63c
00000130: 5e48 e43c a906 913c 4833 75bc 2c0f 33bd
00000140: 8fd1 2ebd 475d 25bb e528 5a3b 0768 08bd
00000150: 6030 183d 5a78 d23c 7eeb 16bc 4b06 333d
00000160: 7b11 91bc 3f98 463d 6df8 94bc c717 df3b
00000170: 10fb 9f3c bf1f 363d aad4 973c 2e08 c5bc
00000180: 2495 a1bd 13db ec3c 90a6 c43c 19a1 bfbb
00000190: ba17 e93c 6410 5d3c 78ad 78bd 2e46 0bbb
000001a0: 0c55 6e3d 0f4b 253d 2ed4 8fbc e628 ebbc
000001b0: 1b35 04bd af4b 103d 9d2f 90bb 6d26 f4bc
000001c0: 70b2 063e b052 cdbc 90ec 093d c4b5 98bc
000001d0: 282f 35bd 0105 8dba 0090 363d 3f15 d3bb
000001e0: 191d 44bc dad4 a1bc 8afa a4bc 185b dd3c
000001f0: 209f f73c 7d82 8cbc 5e69 c6bc 585b e73c
00000200: 8dc8 023d f531 77bd a997 b53d 024c 03bd
00000210: 7c9e 86bd 5041 7fbd 592c 963c abfd fe3c
00000220: 8a8e 683d 1b5a a7bb 9bb6 103d cf17 903d
00000230: db8d 843c fe34 1fbc e54e 3cbc 36f9 f7bc
00000240: a176 31bd eba4 ddbc 2972 40bd 4f3c f83b
00000250: 008e 9c3c e443 eb3a 9eb4 d83d 022d 19bd
00000260: 44ea 34bd 1700 823d 879e cabc 1c01 013d
00000270: a5ce 1a3d a3e8 02bd b3c8 f33c 781e 213d
00000280: 9a5d 0b3d a06e 52bd e6b6 823c 310e 4fbc
00000290: 75f5 03bd 337e e83c 0918 a9bc a01f 4d3d
000002a0: 35af 05be d08f 17bd 6966 11bd 89bf 2dbd
000002b0: 52d9 1fbd 8990 b63c 99e8 b63a 342d d93c
000002c0: a59a 433d dbc8 e93b 8209 32bd 5317 d23a
000002d0: 6be5 9b3c c53f 263e 27d4 aabb 87dd a1bc
000002e0: ad21 27bc 41d4 84bb 4d06 fb3b 0253 ad3c
000002f0: 0fb0 05ba dac8 623a 8eb3 b33c 7f6c eaba
00000300: d206 4abd a693 dabb 4c3d 4ebd 45fd 8cbd
00000310: 6fa4 92bc 6399 713c 6546 b8bc 7dd5 1cbd
00000320: 1b9e 06bb e5e1 143d f790 2cbd e2a0 9cbd
00000330: c605 643d 6c5e 3d3b b62f f83c 5092 c73b
00000340: e5ca 8e3c 69be f23b e582 2ebd e648 2b3c
00000350: 9104 b73c a056 f13d fe75 003d 9ba2 4dbb
00000360: 9a66 20bd db37 49bd a470 bcbd 4da5 b5bc
00000370: 2fd1 1fbd 4803 fa3d 35f0 62bc a0d4 343d
00000380: 70c8 ac3c 60c6 48bd 3228 d8bc 77d3 9dbc
00000390: c1a4 9abc 7418 f0bd d7e7 01bd 9b87 123d
000003a0: 2d02 943b 1672 32bc c0e2 503d c516 f93c
000003b0: 0f02 bf3d cfc0 26bc a195 24be 60a6 423d
000003c0: 01dc 46bd 6af5 1a3d 8695 9f3c 10bf 0fbd
000003d0: 4d1e 263a f4a7 2f3b 4a8a bf3c b708 033d
000003e0: 7ec2 b53c 24d5 d6bc cada 10bb 98e2 503d
000003f0: eb0a 373d 98b5 ff3c ac0a 05bd 151a 243d
-0.051682845 -0.028693015 -0.026349716 -0.040201865 -0.022602445 -0.009839832 -0.007260244 0.009015576
0.012226469 -0.027042037 -0.03832971 0.020141954 0.01569409 -0.008980631 -0.000978845 0.035901897
0.033851307 -0.014563106 -0.045359734 0.016712574 -0.033953775 0.01800335 -0.034477632 -0.0126807215
-0.040629283 -0.0698372 -0.028783763 -0.008287711 -0.03310571 0.0466968 -0.0252241 -0.036856815
-0.042061955 -0.01736544 0.07162522 -0.040305655 -0.024157785 0.018776737 0.014617215 -0.053821385
-0.0065250797 0.05580787 -0.0037614119 0.0126906205 -0.029706847 0.005523027 -0.060604047 0.0038228647
0.015281829 -0.0009052789 -0.0524672 -0.017689286 0.13071574 -0.0069821547 0.027625147 0.04175679
0.03714993 0.013053018 0.012354177 0.013256185 -0.027295517 -0.033214767 0.038367298 -0.036292117
0.010261764 -0.013002434 -0.011078081 -0.02821981 -0.020035129 -0.005088459 -0.0068564867 -0.014140235
0.021862088 -0.015396512 0.029583788 0.02227809 0.027866539 0.017703371 -0.01496584 -0.04371564
-0.04268032 -0.00252326 0.0033288535 -0.033302333 0.03715551 0.025692154 -0.009211419 0.043707173
-0.01770853 0.048485037 -0.018184865 0.0068082544 0.019528896 0.04446387 0.018534023 -0.024051752
-0.078897744 0.028913056 0.024005204 -0.0058480618 0.028453697 0.013492677 -0.060712308 -0.0021251547
0.058186576 0.040354785 -0.01755723 -0.028706025 -0.032277208 0.035228427 -0.004400207 -0.02980348
0.13154006 -0.025063843 0.03367287 -0.01864136 -0.044234425 -0.0010758938 0.044570923 -0.0064417417
-0.011969828 -0.019754816 -0.020138998 0.027020976 0.030227244 -0.017152065 -0.024220165 0.028241798
0.03192954 -0.060350377 0.088668175 -0.03205491 -0.06573197 -0.062318146 0.018331693 0.031126818
0.05677656 -0.005107177 0.035330396 0.07035791 0.016180923 -0.009717224 -0.011493419 -0.0302702
-0.043326024 -0.027056178 -0.04698387 0.0075755487 0.01911068 0.001794931 0.10581325 -0.03739644
-0.044168726 0.063476734 -0.024733795 0.0314952 0.037794728 -0.03196014 0.029758787 0.039335698
0.034024812 -0.05137503 0.015956353 -0.012637661 -0.032216508 0.028380489 -0.020641344 0.050078988
-0.13055117 -0.037002385 -0.035498057 -0.04241899 -0.039025612 0.022285717 0.0013954818 0.026510812
0.047754902 0.0071345395 -0.0434661 0.001602868 0.019030293 0.16235264 -0.005213279 -0.019758953
-0.0102009 -0.004053623 0.007660663 0.021157745 -0.0005099782 0.0008651145 0.021936204 -0.0017885118
-0.04932291 -0.006670433 -0.050351426 -0.06884245 -0.017900674 0.014746043 -0.022494504 -0.038289536
-0.0020541016 0.036348242 -0.042130437 -0.076478735 0.05566957 0.002889539 0.030296188 0.00609044
0.017430732 0.0074079526 -0.0426053 0.010454392 0.022341045 0.117841005 0.031362526 -0.0031377438
-0.03916035 -0.049125534 -0.09201172 -0.022173548 -0.039017852 0.12207657 -0.013851215 0.044148088
0.02109167 -0.04901731 -0.026386354 -0.019265873 -0.018877389 -0.11723414 -0.03171524 0.035773855
0.004516861 -0.010891458 0.050997496 0.030406365 0.093265645 -0.010177805 -0.16072704 0.04752195
-0.048549656 0.0378317 0.019480478 -0.03509432 0.00063369126 0.0026802989 0.023381371 0.031990733
0.022187468 -0.02622468 -0.0022103065 0.050997347 0.044688147 0.03121452 -0.03248088 0.040063936

layer2.bias f4 [400]
00000000: c818 0a3d 522a 403b 243d 75bd d5d2 c13c
00000010: 5800 4abd 16dc 42bd b14e fe3c 0166 e33c
00000020: ca47 18bd b23a 843b 505f 26bd a0a0 893c
00000030: 7fdd cd3c 02b6 80bc 71de d63c f120 123c
00000040: 6700 0c3d 8646 9c3c 15c9 21bd 9fe8 e3ba
00000050: 959d 2b3d eba8 90bd 9d98 0b3d b4e7 11ba
00000060: 11c4 52bd 0acf e3ba deed f3bb deca 253d
00000070: 7b35 3c3d 6bf8 f9bc 0437 bebc 793c 2ebd
00000080: ca92 d63c f457 20bd 470b 0e3d 88c4 da3c
00000090: 27fa 84bc 77df 1e3d b946 0cbc eaec 95bc
000000a0: f1e5 9cbd 9801 8dbb 3e56 833b b19a bcbd
000000b0: 2647 07bd 1d1b 043c 60c7 e5bc 2c3a 65bd
000000c0: 4480 d6bb eebe fb3c db4a 0e3d 4a0c 3abd
000000d0: 7ed2 26bd 94a4 023c a03b 9fbc bd57 d93c
000000e0: 5eae b93c 66d8 d3bc cb73 afbd 51db e3bc
000000f0: f68e bdbb 460e d93c 1aed 42bd e405 dcbd
00000100: ec34 5fbd 67f2 e13c 5d08 44bd cb9c 03bd
00000110: b122 fcbc f5b7 55bc ff63 f6ba f856 05bd
00000120: c53a 6e3c 10d0 f73b be61 a9bc e1bb d7bc
00000130: 44bc dfbd a0f3 8a3c 1f0b 25bc 9b45 5bbd
00000140: ca86 e7ba 9be0 b83b c771 18bd 8f06 24bd
00000150: 7456 483d d55c f7bc 6176 263d 4108 043d
00000160: 0dd2 a5bc a28b 70bc a010 1f3d 7b54 efbc
00000170: 0ce5 183d b6ad e8bc c24f ccbc 2af2 d7bd
00000180: 2774 afbd 600d 433c ff56 d2bc a927 c13d
00000190: 8e4a ab3c e814 ac3b f2c2 03be a687 6abd
000001a0: 970f 403c 527b b03b 4306 9cbb d796 e03c
000001b0: 400e 62bc cc76 9a3b e395 e03c e786 d7bc
000001c0: b038 753d 0f46 583c f978 2abd 90ae 0abd
000001d0: 0511 283d ee52 a03c 42fa 9d3c ba95 263c
000001e0: 4ab6 2e3d 48cc 9fbd 84c1 4ebc 75db 6f3b
000001f0: 31fe d4bc 63f9 5dbc 0084 babb 6baf cabc
00000200: 5c2f 49bd 1d0e 55bd 3ce6 7abc f49e 58bd
00000210: 849b 4f3b 7090 d73b bec2 98bb 3700 213d
00000220: f12f 62bd ddd6 6a3a 6a99 2a3d f345 85bc
00000230: 5dc9 023d 2f23 4dbd aa3a 6bbc 5a4f adbc
00000240: 06f8 a7bd d775 5cbd 3147 d73c 0590 e33c
00000250: 3c45 dbba 96e3 60bc 3273 623c 5017 cb3b
00000260: 557e 2b3d face 313c fae1 03bc 3c16 13bd
00000270: 5392 12bd 714d 813b 025c e9bd 1838 da3c
00000280: 692b 04bd f2e9 66bd 42f5 5fbd 67eb 853c
00000290: 376a 14bd 474c dbbb 701a a0bb ff3a a0bd
000002a0: 997e 7b3c 563f eabd fe7b 48bd f4ad 6b3c
000002b0: 7294 5fbd 6de7 69bd 5f35 30bb 178e 88bc
000002c0: 5675 8d3d f270 373d ef06 eaba d694 cebb
000002d0: 9ab9 c2bc b086 2dbb 77ec fdbc ea7d a5bd
000002e0: 5af7 02bd 17f2 44bd 695a 90bd 6a9e ce3b
000002f0: 324d 653d 3c94 cabd 32bb 0e3c 7e2c a6bb
00000300: 7a8d 273d 052c c3bd 93ce 94bd 34fd cebd
00000310: 1d82 acbd 4123 233d ae01 48bd de24 a73d
00000320: cb8d 9b3d b339 343c 41e9 af3c 2a8a 35bd
00000330: ada4 4e3c ab94 08bc 8057 1cbd 89d8 2ebc
00000340: 3edf 753c e9e1 0ebd c11e 08bc a10f 0a3d
00000350: 2096 c43c 9f20 bc3b e5ef bf3c 9163 eabc
00000360: c88e 77bc 732a a23c 6af3 4fbc ac0e e53c
00000370: c32d 4dbc 7c59 1b3d 25f0 12bd 0280 a6bc
00000380: 4125 723a 13f3 023c 0d9f 7fbc 1696 fcbc
00000390: 56c1 ebbb ea9c adbc 4867 98ba c2a3 91bc
000003a0: 4b28 9cbc b1b7 f93c c874 8d3c 5352 15bc
000003b0: 3d6b 83bc 6f67 06bd 14fb 84bd 79c7 11bd
000003c0: 2878 08bd a5e3 aebc f1f2 3bbd a83d 5dbd
000003d0: 3fcf 51bc 5c08 97bd f46d aa3b f18a 833c
000003e0: c1bf 703d 5cdb bb3c 47d1 e9bb f7e4 153c
000003f0: 9f8b 1b3d 8bf6 32bd 554d 50bd 3522 fb39
0.03371504 0.00293221 -0.05987276 0.023660103 -0.049316734 -0.04757317 0.031043382 0.0277586
-0.03717784 0.0040353173 -0.04061824 0.016800225 0.025130032 -0.015711788 0.026229115 0.008918987
0.03418007 0.019076597 -0.039498407 -0.0017388052 0.04189833 -0.070634685 0.03408109 -0.00055658375
-0.051456515 -0.0017380428 -0.0074441275 0.040476672 0.04594944 -0.030513963 -0.023219593 -0.04253814
0.026193041 -0.03914638 0.034678724 0.026705042 -0.016232563 0.03878733 -0.0085617835 -0.018301446
-0.07661045 -0.0043031685 0.0040080836 -0.092091925 -0.033026837 0.008063105 -0.028049171 -0.05596368
-0.006546052 0.03073069 0.034739356 -0.045421876 -0.040728085 0.007973809 -0.019437611 0.026531095
0.022666153 -0.025860023 -0.08567008 -0.02781454 -0.0057848645 0.026496064 -0.0475894 -0.10743311
-0.05449383 0.027581407 -0.04785954 -0.03213195 -0.03077826 -0.013044347 -0.0018798112 -0.032553643
0.014540379 0.007562645 -0.02067649 -0.026334705 -0.10924581 0.016961873 -0.010073452 -0.053533178
-0.0017664072 0.0056420094 -0.03721788 -0.040045317 0.048910573 -0.030195633 0.04064024 0.032234434
-0.020241762 -0.014681729 0.038834214 -0.029215088 0.03732781 -0.028403144 -0.024940375 -0.10544236
-0.08567076 0.011905044 -0.025676249 0.09431393 0.020909574 0.0052515157 -0.12867334 -0.05725827
0.011722467 0.0053857947 -0.0047614886 0.027415676 -0.013797343 0.0047138687 0.027415222 -0.026309444
0.059868515 0.013200297 -0.041619275 -0.033857882 0.041031856 0.019570794 0.019284371 0.0101675335
0.042654313 -0.078026354 -0.01261938 0.0036599312 -0.026000114 -0.013548228 -0.005692005 -0.024741849
-0.04911743 -0.052015413 -0.015313681 -0.052885965 0.0031678388 0.0065784976 -0.004661887 0.039306846
-0.0552215 0.0008958409 0.041650213 -0.016268706 0.031930316 -0.05008238 -0.014357248 -0.021156002
-0.082016036 -0.05382332 0.026279064 0.027778635 -0.0016729007 -0.013726136 0.01382141 0.0061978474
0.041868526 0.01085257 -0.0080494825 -0.035909876 -0.035784077 0.0039459993 -0.11394502 0.026638076
-0.03226796 -0.05637545 -0.054677255 0.0163476 -0.036234107 -0.0066924426 -0.004885964 -0.078237526
0.015350007 -0.114378616 -0.048946373 0.014384735 -0.054584928 -0.05710547 -0.002688728 -0.016669316
0.06907146 0.044785447 -0.001785485 -0.0063043637 -0.023770142 -0.0026477985 -0.030996544 -0.08080657
-0.031974174 -0.048082437 -0.07048494 0.0063055055 0.055981822 -0.09891555 0.008711623 -0.005071222
0.040906407 -0.095298804 -0.072659634 -0.101068884 -0.08423255 0.039828543 -0.048829727 0.08161329
0.07595404 0.011000085 0.021473529 -0.044321217 0.012612504 -0.008336226 -0.038169384 -0.010671743
0.015006838 -0.034883413 -0.008308114 0.03370631 0.023997366 0.0057411934 0.02342982 -0.02861193
-0.015109725 0.019795632 -0.012692312 0.027961098 -0.0125231175 0.037927136 -0.03587355 -0.02032471
0.00092371186 0.007992524 -0.0156018855 -0.030833285 -0.0071946783 -0.021192987 -0.001162746 -0.017778281
-0.019062182 0.030483099 0.0172676 -0.009113866 -0.016042346 -0.032813486 -0.06493202 -0.035590623
-0.033317715 -0.021348784 -0.045885984 -0.054013878 -0.012805759 -0.07374641 0.0052010957 0.016057463
0.05877662 0.022931747 -0.0071355435 0.009148828 0.03797495 -0.043692153 -0.050855 0.00047899937

layer3.weight f4 [1, 400]
00000000: 5410 d1ba cb71 303c 016a 223f c38d 563b
00000010: 73cb 8abb 5050 debc efa0 e83c def6 56bc
00000020: 4496 6ebb a468 3e3b d3fa 403b 3847 e93e
00000030: 636b 1fbc 690f ad3a d4a6 f2bc dc52 49bc
00000040: 19de 9937 6efc 933a c494 8ebb bd62 b73b
00000050: 36bc fd3b d49c d0be cb2f 8cbc 6796 923c
00000060: c700 213d 4e08 073b 4f20 30bd d579 2dbb
00000070: 8a76 d93c 97eb 7e3c 8438 753b 0327 e0bb
00000080: 7b04 86bc 79bb fabc 302d b73b 29da fb3a
00000090: 8fd1 45bd 8f70 123d 431f aabb 01ab 83bb
000000a0: e128 293f 0475 e1bc 87bf 203c 6204 28bf
000000b0: 58df 9d3d dcb6 2cbb 71d9 883d 2b33 88bc
000000c0: e175 ffbb 0d67 673b f412 453b c8fb c7bc
000000d0: 2e55 b63a 370d 293d df43 38ba f3b6 60bc
000000e0: 37c7 75bc af4f 10bd 1698 f73b fc57 4fbc
000000f0: b045 de3a 4783 b4ba afd9 07bc 9a47 603e
00000100: 5a5e 183c 68d8 423c 88f3 3f3c 8de6 833c
00000110: d266 0cbd 1588 0ebc 6cf7 6e3e 9950 003d
00000120: c96c 94bc 7529 cebc f3d9 223b 3448 aebc
00000130: 4fed 653e c614 22bc 8097 d5bc d0a8 2b3c
00000140: b70f 3abb 3e2d c13b 68a1 303b b08e 06bd
00000150: 4884 973d 9ec6 903b a1ca cb3a 9b1e 15bd
00000160: b528 9e3c f9f9 9bbc 1755 06bd 2574 85bc
00000170: bd67 0dbd 6ca4 81bc 2ce5 793a 9106 2b3e
00000180: 0ae1 1ebc d126 b0bc 5798 17bf ff31 65be
00000190: 06ee ab3c feda 08bd 4c45 d93e 289a 1f3e
000001a0: b403 8f3c 7c64 46bb 5075 6fbb a3d7 d43a
000001b0: 1e97 6c3e f057 163b 6070 553b c4bf 20bd
000001c0: 4b2a a33d 5d90 86bc 5c75 273b 2284 83bc
000001d0: e48d 133d 9c71 0bbd a46b 6a3d 1bf0 23bd
000001e0: e404 653b d500 f23c 73df 14bd 932d 79bc
000001f0: 25c6 bf3b 3909 c7bc a6a4 c8bc 0941 3dbc
00000200: 1610 8fbc 2ed1 43bd fac3 0e3d 033a 3bbc
00000210: 9ade d9bb a132 1a3c d83a e93d 4986 af3c
00000220: 0efd b63d feba 1bbb 14a2 c6ba 9f74 ecbb
00000230: 2f0d 90bb ab32 f13c 0d99 223b 96ff a2ba
00000240: f27a b13d 68be c2bc 8dc0 313c be02 26bd
00000250: caf5 9e3d b9ec abbb 0071 9bbd e838 653e
00000260: f579 51be 6c59 a4bc e737 d0bb d9db 263d
00000270: d257 5b3b 1ebb e63c a7e5 6b3e 8a7e b8bb
00000280: d0eb 8dbd 8651 aebc 5887 f0bb 831b 353d
00000290: fa03 29bd a7ef 89bc 3ce4 acbc 782c fb3c
000002a0: 7a12 26be 3c95 82be bbc1 b53c 4ba5 14bb
000002b0: 77ce a5bc 0427 333d 32a6 eb3c 198d 653c
000002c0: 1de9 f93c c5c4 1fbd e6cd 1fbc 9110 8a3d
000002d0: 69cf 073f da92 b33c 2b37 75bc 9603 df3e
000002e0: d439 1fbc 704c 08bd a574 0f3d c660 e33a
000002f0: ddfa e73d 7ff7 5fbd 1237 75be 22f1 cbbb
00000300: c4e8 4d3e dee0 603d 517e e0be b348 4b3e
00000310: 23a3 e6bd 7ae6 f5bb 017c 253d 8f02 42be
00000320: 769a 8ebe 8950 f53e 50a1 8a3d d5d0 18bd
00000330: 548f fcbd 5110 983c 012b 693c 4227 88bc
00000340: 5c59 3dbd fb5d 9f3d 2658 b7bc aff7 7bbd
00000350: 9255 ba3b 8498 36bc d923 06bd 3ae4 debc
00000360: 99fa 04bb 8905 d73a 71e9 24bd e156 fb3b
00000370: 175a 3cbc c0f2 e33a 49b8 a13b 5074 ac3a
00000380: 0084 c8bc e0d1 08bd 2205 34bd 75c4 1ebc
00000390: ce33 863e e7df 9d3b 1644 e93b 75e6 52bd
000003a0: 2d4d dfbc 11ea a4bc 97b5 efbc 501d 923b
000003b0: f807 89bc a04d 9a3c 8e41 433e c7ab 08bc
000003c0: c848 19bd 981a 9d3c 6d2e 0bbd be29 d3ba
000003d0: 26fc 85bc 1d9d 993d ffb2 7f3c 20c3 613d
000003e0: 1d07 d5bd 71e7 ad3b 5e7a 2e3c d48d 9bb9
000003f0: f6f4 d2bb 8233 febc 20b1 dcbc ef25 303d
-0.0015950301 0.010769318 0.63443 0.0032738305 -0.004235679 -0.027137905 0.028397052 -0.013120381
-0.0036405483 0.002905407 0.0029446378 0.45562148 -0.009730193 0.0013203445 -0.029620565 -0.012287822
1.8342444e-05 0.001129044 -0.0043512303 0.0055964873 0.0077433838 -0.4074465 -0.017112633 0.017893983
0.039307382 0.0020604315 -0.042999562 -0.0026470323 0.026545782 0.015559099 0.003741772 -0.006840588
-0.016359558 -0.030606972 0.0055901036 0.0019214797 -0.048295554 0.035751875 -0.005191715 -0.004018188
0.66078 -0.027521618 0.009811289 -0.6563169 0.07708615 -0.002635411 0.06682099 -0.016625961
-0.0077960347 0.0035309226 0.0030071111 -0.02441205 0.0013910884 0.04127237 -0.00070291565 -0.0137154935
-0.01500111 -0.035232242 0.007555972 -0.012655254 0.0016958024 -0.0013772034 -0.008291646 0.21902314
0.009299839 0.011892416 0.011715777 0.016101146 -0.034277745 -0.008699437 0.23336571 0.031326864
-0.018118279 -0.025166253 0.0024849146 -0.021274664 0.22453807 -0.009892648 -0.026073217 0.01047726
-0.0028390714 0.005895286 0.0026951674 -0.03285092 0.073982775 0.0044182083 0.0015548059 -0.03640614
0.01930652 -0.019040095 -0.03279599 -0.016290734 -0.03452276 -0.015825473 0.00095327455 0.16701724
-0.009697208 -0.021502884 -0.5921683 -0.22382353 0.020987522 -0.033411972 0.42435682 0.1558615
0.01745782 -0.0030272296 -0.003653843 0.0016238581 0.23104522 0.0022940598 0.0032568201 -0.039245382
0.07967051 -0.01642626 0.002555213 -0.016054217 0.03602399 -0.034043893 0.05723156 -0.040023904
0.0034945542 0.029541412 -0.03634591 -0.01520862 0.005852478 -0.02429639 -0.024492573 -0.01155115
-0.017463725 -0.04780691 0.034854867 -0.011427405 -0.0066488506 0.009411485 0.11388177 0.021426337
0.08934985 -0.002376258 -0.0015154504 -0.0072160508 -0.004396103 0.029443106 0.0024810464 -0.001243579
0.08666028 -0.023772433 0.01084913 -0.04052996 0.07761724 -0.0052467254 -0.075899124 0.2238499
-0.20456679 -0.02006217 -0.0063543203 0.040737007 0.0033469093 0.028165396 0.23036824 -0.005630319
-0.06929743 -0.021279108 -0.007340353 0.04421569 -0.041263558 -0.016837908 -0.021104924 0.030660853
-0.16217986 -0.25504482 0.022187104 -0.002268153 -0.020240052 0.04373838 0.028765772 0.014010691
0.030506665 -0.039006013 -0.00975368 0.06741441 0.5305086 0.02192061 -0.014966766 0.43557423
-0.009718377 -0.03327602 0.03502335 0.0017347566 0.11327145 -0.05467939 -0.23946789 -0.0062238136
0.20108324 0.05490195 -0.43846372 0.19851951 -0.112615846 -0.0075042816 0.040401462 -0.18946289
-0.2785222 0.47913006 0.06769049 -0.037308533 -0.12332025 0.018562468 0.014231444 -0.016620282
-0.046227798 0.07781597 -0.0223809 -0.061515506 0.0056864703 -0.011144761 -0.03274903 -0.027208436
-0.002029097 0.0016404848 -0.04026169 0.007670269 -0.0114960885 0.0017391071 0.0049352986 0.0013157222
-0.024477005 -0.033403277 -0.043950208 -0.009690394 0.262114 0.004817951 0.007118712 -0.051489312
-0.02725848 -0.020131143 -0.029261393 0.0044590607 -0.016727433 0.018835843 0.19067976 -0.008341736
-0.037422925 0.01917772 -0.033979822 -0.0016110463 -0.016355585 0.0750067 0.015606641 0.055117726
-0.104017474 0.005307131 0.010649292 -0.00029669574 -0.006437893 -0.03103042 -0.026939929 0.043004926
